mnist_model_not_inverted.pth (torch, 82567 bytes, 10 tensors)

conv1.weight f4 [6, 3, 3, 3]
-0.8730015 -0.83756596 -2.2796965 0.36492118 0.3353351 -0.078344345 0.75228226 0.5411228
1.0222596 -0.83389604 -0.95372766 -2.1130471 0.22167143 0.36345232 -0.138211 0.7587814
0.6924581 0.77215385 -0.85960215 -0.93957347 -2.2590923 0.22008215 0.33737293 -0.14383942
0.8388567 0.56464165 0.9709137 0.4345907 0.072139844 1.09373 0.22082305 0.36474615
0.8870896 -1.3562276 -0.832229 -0.9364999 0.45696425 0.33859512 1.0951854 0.28060788
0.43428528 0.77945995 -1.2654166 -0.86445206 -0.86527795 0.26754543 0.05274604 1.1750093
0.22357677 0.45271206 0.8758033 -1.1339589 -0.6119355 -0.8377215 0.91986084 -0.15809585
1.2702436 -0.037982985 -0.5897951 0.8253107 0.08033215 -0.29902166 0.97891665 0.9917127
-0.291992 1.2467414 0.13775742 -0.6083447 0.6209205 -0.027424676 -0.45566165 0.9315174
0.98334974 -0.39156997 1.3475223 0.14355801 -0.52721924 0.60612154 0.09727026 -0.20486087
0.99948066 1.477052 -0.85544395 0.39885792 0.25607917 -1.324799 -0.44183376 0.75222176
-0.30385488 0.8438499 1.4472493 -0.82997656 0.39543045 0.13905887 -1.3642406 -0.42465162
0.84708685 -0.3340629 0.8870945 1.5692971 -0.69146174 0.53679657 0.1413114 -1.2630804
-0.22641838 0.98277444 -0.2321976 0.96282464 0.8139014 -0.21404108 0.43732023 0.9927355
0.18395355 -0.14067641 1.3047968 0.21360205 0.11456329 0.8757234 -0.14408772 0.35154673
0.824444 0.12753998 0.0075546717 1.5061268 0.24463336 0.15466583 0.9817827 -0.11607913
0.2672062 0.847552 0.20199841 0.040097695 1.4596416 0.36820447 0.18773614 -0.6951408
-0.021756517 -1.1005365 -0.08938578 0.27223372 -0.018102046 -1.0014865 -0.15047505 -1.1061126
-0.6961634 -0.02181303 -1.1004742 -0.08937658 0.27222005 -0.018104821 -1.0015063 -0.15048447
-1.1035384 -0.69239736 -0.021587607 -1.1004943 -0.089382835 0.27223724 -0.018026948 -1.0015064
-0.15048644 -1.10232
00000000: 077d 5fbf b96a 56bf 8ce6 11c0 f3d6 ba3e
00000010: 0bb1 ab3e 0073 a0bd 9295 403f 0687 0a3f
00000020: 67d9 823f 367a 55bf 7f27 74bf 2a3c 07c0
00000030: d6fd 623e 6c16 ba3e 2f87 0dbe 7f3f 423f
00000040: ef44 313f e0ab 453f e30e 5cbf e387 70bf
00000050: f894 10c0 375d 613e 25bc ac3e a44a 13be
00000060: 50bf 563f 5b8c 103f cd8d 783f ac82 de3e
00000070: 0ebe 933d 58ff 8b3f 701f 623e 02c0 ba3e
00000080: 4e18 633f de98 adbf f60c 55bf 75be 6fbf
00000090: 38f7 e93e 575c ad3e 092f 8c3f d6ab 8f3e
000000a0: a45a de3e b08a 473f 2cf9 a1bf bb4c 5dbf
000000b0: db82 5dbf b7fb 883e 3b0c 583d b466 963f
000000c0: 4ff1 643e e0c9 e73e a534 603f 9125 91bf
000000d0: cea7 1cbf eb74 56bf 007c 6b3f e1e3 21be
000000e0: 5897 a23f 0c94 1bbd d0fc 16bf 9047 533f
000000f0: 2f85 a43d 5e19 99be 489a 7a3f e2e0 7d3f
00000100: fa7f 95be 3995 9f3f 4810 0d3e 7abc 1bbf
00000110: a5f4 1e3f b7a9 e0bc 7c4c e9be ed77 6e3f
00000120: cfbc 7b3f dc7b c8be 9c7b ac3f df00 133e
00000130: d7f7 06bf c82a 1b3f a135 c73d 0cc7 51be
00000140: f7dd 7f3f 0a10 bd3f 60fe 5abf 1b37 cc3e
00000150: cf1c 833e 0393 a9bf 0938 e2be 9b91 403f
00000160: de92 9bbe 8c06 583f 773f b93f 5879 54bf
00000170: dc75 ca3e 7365 0e3e 709f aebf f06b d9be
00000180: afda 583f 4b0a abbe a018 633f bade c83f
00000190: a303 31bf 806b 093f f0b3 103e 9eac a1bf
000001a0: 38da 67be 1b97 7b3f 35c5 6dbe ad7b 763f
000001b0: d85b 503f 962d 5bbe 70e8 df3e ea23 7e3f
000001c0: 525e 3c3e 7a0d 10be 9503 a73f 7fba 5a3e
000001d0: 28a0 ea3d 692f 603f bb8b 13be effd b33e
000001e0: c30e 533f d799 023e 2e8d f73b c3c8 c03f
000001f0: 2b81 7a3e b860 1e3e 1c56 7b3f e5ba edbd
00000200: 40cf 883e 2bf9 583f acd8 4e3e 7b3d 243d
00000210: 89d5 ba3f 4c85 bc3e e73d 403e bff4 31bf
00000220: b93a b2bc 61de 8cbf e40f b7bd 3862 8b3e
00000230: be4a 94bc b630 80bf 2216 1abe 1995 8dbf
00000240: c437 32bf 3db1 b2bc 57dc 8cbf 120b b7bd
00000250: 6d60 8b3e 9050 94bc 5c31 80bf 9a18 1abe
00000260: bf40 8dbf f440 31bf 7ed8 b0bc ffdc 8cbf
00000270: 590e b7bd ae62 8b3e 40ad 93bc 5d31 80bf
00000280: 1e19 1abe d218 8dbf

conv1.bias f4 [6]
0.3283716 0.21720901 0.07213471 0.067980744 0.0038392374 0.7970746
00000000: 5320 a83e 0a6c 5e3e 5dbb 933d 7d39 8b3d
00000010: b79b 7b3b 150d 4c3f

conv2.weight f4 [16, 6, 3, 3]
-0.18518512 0.08554943 -0.15437852 0.15096205 -0.20457238 -0.11401172 -0.75602853 -0.1870404
0.35946852 0.11333932 -0.092554405 0.30419302 -0.20306045 0.06153467 -0.121450454 0.11227224
0.2966826 -0.0016070429 0.0630262 0.11126372 0.087696 -0.057618745 0.09095691 -0.3521885
-0.0706548 -0.20436561 0.26419163 0.43564287 0.11315746 0.18842256 0.23026122 0.07734114
-0.05665811 -0.6935875 0.41443682 0.29501286 0.3172935 -0.15370525 0.11935729 0.019352017
0.05334563 -0.091433965 -0.65385747 0.19248688 -0.13020352 -0.15627168 -0.55146897 -0.72581875
0.11632923 -0.36294797 -0.107130796 0.2939628 -0.18398671 -0.458459 0.5450258 0.06607578
0.25466412 0.10270478 -0.38744295 0.40974766 0.08247963 -0.073140405 0.04590444 0.38947538
0.19373216 0.16220409 0.07976969 -0.06004644 -0.15983811 -0.06659341 -0.3568061 -0.32966644
-0.462574 0.067800395 0.01907679 0.15161991 0.019436762 -0.021120233 0.0908534 -0.21557933
0.33090985 -0.89549893 -0.012576837 -0.09052374 0.18078454 -0.03743555 -0.041151676 0.23737049
0.12480369 0.041549407 -0.3122215 0.19395293 -0.10743458 0.1227687 0.07991723 -0.04353195
0.20901819 -0.036920976 0.23182401 -0.04811197 -0.10373377 -0.04263181 -0.39889222 -0.017368393
-0.13458742 -0.32738113 -0.42952082 -0.71473277 0.20548192 0.47398576 1.0439502 0.086388156
-0.057916373 0.13103183 0.041967835 0.036052905 -0.06851229 -0.44398332 -0.12582703 0.41224042
-0.21028914 -0.30866864 0.098379485 -0.4430617 -0.3076698 -0.10641377 -0.2500171 -0.35123587
-0.28782567 -0.0106433425 0.1466411 0.15177026 -0.19772719 0.05770562 -0.06594511 -0.6080621
-0.48672456 -0.5447324 -0.5521372 0.6157528 0.17909408 -0.48303124 0.6008241 -0.12430376
-0.69935143 0.04603823 0.19167194 -0.52124906 0.4730379 -0.06480198 -0.026191419 0.24790479
-0.07417215 0.16358548 0.21793166 0.16942023 0.14663091 0.16600129 -0.0856548 -0.17547603
-0.621361 -0.2905739 1.1677787 0.50581694 0.34512967 -0.04174818 -0.2697575 0.39715382
-0.4265521 0.15939786 -0.01277788 0.9006433 -0.040644117 -0.14892307 -0.0033550696 -0.32012972
-0.60380954 -0.26486713 0.11924326 -0.34606808 -0.2531461 -0.06515776 -0.92994004 0.0041935924
0.19798595 -0.7400144 -0.08499262 0.21480112 -0.35549718 -0.08837705 -0.39669666 0.041443106
0.36826122 -0.1340122 0.0035925345 -0.11968035 0.07389972 -0.15041329 -0.11747748 -0.13312592
0.082020275 0.15830143 -0.026426325 0.20591284 -0.18346281 0.1727967 0.032221638 -0.20832963
0.10287435 0.14842696 -0.40113905 -0.01407778 0.036835533 -0.17981493 -0.11628382 0.018912999
0.070164986 -0.0486186 0.07259103 0.4361449 0.15585126 -0.21573713 0.219036 -0.17450516
-0.30286378 0.33521277 -0.1048388 0.058180794 0.3412037 -0.25001952 0.07614934 0.4435948
0.6365169 0.017647164 -0.18754219 -0.29445288 0.37256563 -0.03314001 0.2909892 -0.070341624
-0.4194612 0.29442322 -0.8042145 -0.03774762 0.08389897 0.18014221 0.089156955 0.4331408
-0.25708658 -0.77551234 -0.21997759 0.008654053 0.07355452 -0.14804019 0.1255531 0.27344477
00000000: 2ba1 3dbe 8a34 af3d 6715 1ebe cc95 1a3e
00000010: 6c7b 51be fa7e e9bd 168b 41bf 8587 3fbe
00000020: 420c b83e 721e e83d 2a8d bdbd 30bf 9b3e
00000030: 14ef 4fbe c70b 7c3d 04bb f8bd fdee e53d
00000040: c8e6 973e 69a3 d2ba e113 813d 3cde e33d
00000050: f699 b33d a201 6cbd 9e47 ba3d 0d52 b4be
00000060: 77b3 90bd 3845 51be 2044 873e 950c df3e
00000070: 19bf e73d d8f1 403e 99c9 6b3e 0865 9e3d
00000080: 5612 68bd f38e 31bf 1031 d43e ed0b 973e
00000090: 4b74 a23e e964 1dbe 9871 f43d 1f88 9e3c
000000a0: f380 5a3d bb41 bbbd 3463 27bf 481b 453e
000000b0: 1254 05be af05 20be 122d 0dbf 42cf 39bf
000000c0: 053e ee3d 51d4 b9be 6467 dbbd 4b82 963e
000000d0: 0367 3cbe 23bb eabe d086 0b3f bd52 873d
000000e0: 5663 823e e256 d23d ec5e c6be 72ca d13e
000000f0: 15eb a83d a3ca 95bd 4b06 3c3d 5169 c73e
00000100: b961 463e d418 263e 4b5e a33d 42f3 75bd
00000110: 9aac 23be 2062 88bd 4aaf b6be 0aca a8be
00000120: 80d6 ecbe efda 8a3d ee46 9c3c 4042 1b3e
00000130: d839 9f3c 5704 adbc 5911 ba3d d4c0 5cbe
00000140: 046d a93e 6b3f 65bf 140f 4ebc 8364 b9bd
00000150: 951f 393e 0556 19bd a98e 28bd 4011 733e
00000160: 1499 ff3d b62f 2a3d 7fdb 9fbe 999b 463e
00000170: a906 dcbd 286e fb3d a5ab a33d 8f4e 32bd
00000180: dd08 563e 733a 17bd 4663 6d3e 0f11 45bd
00000190: 5f72 d4bd b19e 2ebd 9a3b ccbe 2948 8ebc
000001a0: 49d1 09be 809e a7be 27ea dbbe baf8 36bf
000001b0: da69 523e 43ae f23e 29a0 853f 46ec b03d
000001c0: b839 6dbd 352d 063e 77e6 2b3d 36ac 133d
000001d0: 2c50 8cbd c851 e3be cdd8 00be 2d11 d33e
000001e0: 0956 57be d109 9ebe 2f7b c93d fcd8 e2be
000001f0: e586 9dbe 76ef d9bd 3e02 80be 30d5 b3be
00000200: e35d 93be 6a61 2ebc 1629 163e aa69 1b3e
00000210: ff78 4abe ba5c 6c3d 3b0e 87bd f5a9 1bbf
00000220: f633 f9be 9573 0bbf dd58 0dbf faa1 1d3f
00000230: 7064 373e df4f f7be 9ccf 193f f892 febd
00000240: b208 33bf 9592 3c3d a645 443e 9470 05bf
00000250: 0632 f23e e7b6 84bd 638f d6bc c1da 7d3e
00000260: 91e7 97bd f482 273e 7a29 5f3e 7f7c 2d3e
00000270: 6a26 163e 3efc 293e c96b afbd fdaf 33be
00000280: 8411 1fbf 1ac6 94be c679 953f 387d 013f
00000290: d6b4 b03e 2400 2bbd a81d 8abe bf57 cb3e
000002a0: 0965 dabe 3139 233e 505a 51bc 8f90 663f
000002b0: 727a 26bd 4a7f 18be bae0 5bbb 0be8 a3be
000002c0: 4393 1abf aa9c 87be cf35 f43d d62f b1be
000002d0: 5e9c 81be 6f71 85bd 8d10 6ebf 676a 893b
000002e0: d4bc 4a3e 9571 3dbf 9c10 aebd d3f4 5b3e
000002f0: ba03 b6be 07ff b4bd d31b cbbe 3fc0 293d
00000300: bc8c bc3e 7f3a 09be ba70 6b3b f91a f5bd
00000310: bd58 973d f105 1abe 0898 f0bd 2952 08be
00000320: 3ffa a73d c519 223e 057c d8bc d1da 523e
00000330: addd 3bbe 9ef1 303e d6fa 033d 5d54 55be
00000340: caaf d23d 3dfd 173e 1962 cdbe 7da6 66bc
00000350: dbe0 163d 6821 38be 3626 eebd 6fef 9a3c
00000360: a9b2 8f3d 4c24 47bd 9baa 943d 624e df3e
00000370: 7997 1f3e 32ea 5cbe f94a 603e 7bb1 32be
00000380: f610 9bbe 02a1 ab3e bab5 d6bd fc4e 6e3d
00000390: 40b2 ae3e 8f02 80be 2ff4 9b3d dc1e e33e
000003a0: c6f2 223f c990 903c 0f0b 40be 87c2 96be
000003b0: ecc0 be3e d2bd 07bd 89fc 943e 450f 90bd
000003c0: 9ec3 d6be a4be 963e 00e1 4dbf 409d 1abd
000003d0: 39d3 ab3d 3377 383e ec97 b63d a2c4 dd3e
000003e0: daa0 83be fa87 46bf ce41 61be bbc9 0d3c
000003f0: c1a3 963d d997 17be fe90 003e f400 8c3e

conv2.bias f4 [16]
0.08876321 0.04401267 0.010179742 0.19441494 -0.007029203 -0.030979704 0.004754343 -0.13723603
0.16795622 0.12124875 -0.24827535 0.4122323 0.07843386 -0.038749687 0.1889866 -0.07875175
00000000: 7cc9 b53d a146 343d efc8 263c b614 473e
00000010: 3b55 e6bb 26c9 fdbc 52ca 9b3b 9a87 0cbe
00000020: b7fc 2b3e 4451 f83d e53b 7ebe 1d10 d33e
00000030: eea1 a03d feb7 1ebd b485 413e 9948 a1bd

conv3.weight f4 [120, 16, 2, 2]
-0.051146198 0.073309116 -0.12725933 5.2892272e-05 0.047261015 0.17162985 0.010444537 -0.00235068
-0.02141993 -0.01151283 -0.068308964 -0.020883786 0.12362734 0.05840162 0.027532307 -0.040361416
-0.36936703 -0.2824132 -0.13677369 -0.0054213065 -0.043965295 -0.20423143 0.049693536 -0.13507596
0.071292326 -0.13765313 0.029518452 -0.13565995 -0.45404866 -0.25060275 0.40816778 0.15104996
-0.078911476 0.0054818145 0.17754312 -0.054367434 0.0036567382 0.008502562 0.15260926 -0.120299466
0.039394643 -0.10202988 0.1132886 0.11081566 -0.028967692 -0.020613752 0.046706617 0.042215895
-0.05258853 -0.03934536 0.1036708 -0.049878813 0.09494144 0.0032894986 -0.018138783 -0.06091236
-0.028631503 0.06410931 0.02123918 0.038740184 -0.12442733 -0.13224353 0.06069909 0.10837769
0.15722014 -0.0020267803 0.03163445 0.06299399 0.30439293 -0.041009743 -0.09983026 -0.23585807
-0.19247301 -0.5307753 -0.34268624 -0.115074076 -0.67537075 -0.13730189 -0.01618212 0.002847064
0.19048004 -0.0064624436 0.1128764 0.06004573 -0.08285778 -0.37863702 -0.28480497 -0.12544382
-0.044796128 0.087104656 0.10783592 0.04209162 0.10546449 -0.004979771 0.152745 0.028690808
0.16836642 -0.019642785 0.0130122695 -0.037308715 0.37164456 -0.008864399 0.110454746 -0.004411292
-0.15904352 0.029232832 -0.02994777 0.01747529 0.10827203 0.0388716 0.060639754 -0.027376136
0.016494688 0.15106297 0.021861363 -0.021955958 0.10172409 0.07056346 -0.077204585 0.36236316
0.07243234 0.08079853 0.10438819 -0.057745237 0.06438139 0.10969648 -0.0477944 0.009359555
0.2750805 0.045316864 0.057672303 0.032929845 -0.010363675 -0.023995796 0.043366086 0.16893221
-0.15644802 0.13140853 0.04812218 0.0814495 0.062372502 -0.05616136 0.086572 0.024668558
0.23916039 -0.048536688 0.097562164 -0.07153302 -0.12345448 -0.038603526 -0.34993714 -0.08760219
-0.1492722 -0.00832565 0.013551962 0.0090868 0.24180533 -0.18293142 -0.15472138 -0.460431
0.04184809 -0.032349043 -0.12384842 -0.03071424 -0.10117215 -0.010610095 -0.21649437 0.015512679
-0.010448585 -0.03231576 -0.03242368 0.056219056 0.11365292 0.025125757 -0.09432851 0.11482896
0.07585382 -0.038546517 -0.15725827 0.058054343 0.15152872 -0.14649528 -0.023821818 0.0899525
-0.046504375 0.017494906 0.05002166 0.23914996 0.10479016 -0.062638886 -0.04876356 0.22131042
0.01021578 0.102120034 -0.025933463 -0.097524725 0.110484466 0.115635954 0.032821756 0.07125756
0.0026411854 -0.1121949 -0.09387081 -0.3138543 0.04723123 0.007908142 -0.05823689 0.17143273
-0.1345756 -0.07104914 -0.14663434 -0.5659379 0.024417039 -0.01264047 0.113776736 -0.07029884
0.2715968 0.08917626 -0.0028739318 -0.09960201 -0.078550585 0.2454862 -0.15079097 -0.5109348
-0.072506554 -0.34903723 0.07625301 -0.13235362 -0.2352012 -0.13642597 -0.013879988 -0.08170784
0.31216317 0.024238298 -0.15466888 -0.53745675 0.46319532 -0.04244712 -0.030080713 -0.045720037
-0.039317474 0.07039261 0.14735734 0.12719217 -0.084659785 -0.3624823 0.077981934 0.042488903
-0.3993047 -0.09967372 0.08021971 0.0023719154 0.14144734 -0.1743775 0.028096745 -0.21815123
00000000: ad7e 51bd 1723 963d 4550 02be a5d8 5d38
00000010: c494 413d bcbf 2f3e 901f 2b3c de0d 1abb
00000020: d978 afbc 4fa0 3cbc 92e5 8bbd 7914 abbc
00000030: 5530 fd3d 8936 6f3d 6f8b e13c 0352 25bd
00000040: ad1d bdbe 7798 90be 670e 0cbe 37a5 b1bb
00000050: f414 34bd 0b22 51be 738b 4b3d 5a51 0abe
00000060: b601 923d f1f4 0cbe aed0 f13c 71ea 0abe
00000070: 1179 e8be 014f 80be 5efb d03e d7ac 1a3e
00000080: 579c a1bd cba0 b33b ddcd 353e 63b0 5ebd
00000090: e3a5 6f3b 544e 0b3c 9a45 1c3e 915f f6bd
000000a0: 475c 213d 0bf5 d0bd db03 e83d 52f3 e23d
000000b0: a74d edbc 2cde a8bc 704f 3f3d 93ea 2c3d
000000c0: 1267 57bd 9a28 21bd 5b51 d43d ba4d 4cbd
000000d0: a870 c23d a194 573b c997 94bc 3d7f 79bd
000000e0: 9d8c eabc be4b 833d cafd ad3c 07ae 1e3d
000000f0: c2d3 febd d96a 07be 9c9f 783d 1ff5 dd3d
00000100: 51fe 203e bbd3 04bb 2093 013d fe02 813d
00000110: 64d9 9b3e d5f9 27bd cf73 ccbd c784 71be
00000120: a517 45be e4e0 07bf 9274 afbe f5ab ebbd
00000130: 19e5 2cbf de98 0cbe 5e90 84bc cf95 3a3b
00000140: 330d 433e e8c2 d3bb be2b e73d 83f2 753d
00000150: 57b1 a9bd b6dc c1be f5d1 91be 5874 00be
00000160: 257c 37bd ed63 b23d 14d9 dc3d 4368 2c3d
00000170: c4fd d73d 592d a3bb 2f69 1c3e fc08 eb3c
00000180: 3f68 2c3e e8e9 a0bc 6a31 553c 06d1 18bd
00000190: 3248 be3e fc3b 11bc 1936 e23d 998c 90bb
000001a0: 4edc 22be b179 ef3c 0755 f5bc 5728 8f3c
000001b0: babd dd3d d437 1f3d 6461 783d eb43 e0bc
000001c0: de1f 873c 40b0 1a3e 9a16 b33c fbdc b3bc
000001d0: b854 d03d 9383 903d 701d 9ebd aa87 b93e
000001e0: 6857 943d b379 a53d 7ac9 d53d 4586 6cbd
000001f0: 64da 833d 8ca8 e03d 10c4 43bd d258 193c
00000200: 5ad7 8c3e 2d9e 393d cb39 6c3d 72e1 063d
00000210: 67cc 29bc d592 c4bc a3a0 313d 91fc 2c3e
00000220: e933 20be f58f 063e c31b 453d ffce a63d
00000230: 4f7a 7f3d 7409 66bd a94c b13d b715 ca3c
00000240: 76e6 743e 68ce 46bd acce c73d e77f 92bd
00000250: b4d5 fcbd bb1e 1ebd f62a b3be c768 b3bd
00000260: d0da 18be 4f68 08bc 0c09 5e3c cde0 143c
00000270: d19b 773e 6052 3bbe 486f 1ebe 9dbd ebbe
00000280: e768 2b3d 6e80 04bd 3ea4 fdbd 6e9c fbbc
00000290: 5833 cfbd f7d5 2dbc b3b0 5dbe e428 7e3c
000002a0: 8b30 2bbc 885d 04bd b1ce 04bd f445 663d
000002b0: ddc2 e83d 88d4 cd3c 4e2f c1bd 722b eb3d
000002c0: 3f59 9b3d f4e2 1dbd 5008 21be 64ca 6d3d
000002d0: 582a 1b3e dc02 16be f925 c3bc 0439 b83d
000002e0: 5f7b 3ebd 7a51 8f3c 83e3 4c3d bae3 743e
000002f0: 399c d63d d148 80bd 4cbc 47bd 339f 623e
00000300: 1660 273c 4f24 d13d 6a72 d4bc 0bbb c7bd
00000310: ae45 e23d 8bd2 ec3d 1b70 063d 7cef 913d
00000320: bd17 2d3b 71c6 e5bd 573f c0bd 83b1 a0be
00000330: 8975 413d 2791 013c ce89 6ebd 108c 2f3e
00000340: 30ce 09be 3682 91bd 5027 16be 4ee1 10bf
00000350: 3e06 c83c f919 4fbc c703 e93d d7f8 8fbd
00000360: bc0e 8b3e 0ba2 b63d 9358 3cbb 23fc cbbd
00000370: 21df a0bd bc60 7b3e f368 1abe a0cc 02bf
00000380: 517e 94bd 02b5 b2be 8a2a 9c3d b587 07be
00000390: 95d8 70be 40b3 0bbe e468 63bc 7156 a7bd
000003a0: dad3 9f3e 658f c63c 8561 1ebe c496 09bf
000003b0: f027 ed3e 08dd 2dbd d46b f6bc ef44 3bbd
000003c0: 5c0b 21bd 002a 903d d8e4 163e aa3e 023e
000003d0: 1c62 adbd 4897 b9be feb4 9f3d d808 2e3d
000003e0: aa71 ccbe bc21 ccbd 3b4a a43d 2372 1b3b
000003f0: 92d7 103e 0490 32be 252b e63c 0963 5fbe

conv3.bias f4 [120]
0.0441339 -0.17528777 0.27964586 0.107041515 0.26673287 0.22789966 -0.18550186 0.07454819
0.52494633 0.08848697 0.48178682 0.1289267 -0.21333393 -0.014725986 0.22974141 0.42723837
0.09107256 -0.08387583 0.0053068553 0.12425884 0.23563358 0.38530418 0.29800433 0.023449223
0.13820589 -0.3395859 0.008563465 0.24647126 -0.4238509 0.258469 0.19132842 -0.028097363
0.21145359 0.315585 -0.013795274 -0.119804665 0.29080826 0.23210298 0.29911637 -0.23582599
0.2615986 0.14506966 -0.0142882075 -0.1830441 -0.13058914 0.45229274 0.109553464 -0.014720576
0.44310606 0.15279154 0.4005367 0.0962496 0.19815472 0.34442648 -0.21145184 0.03503663
0.06421632 0.19884618 0.27111778 0.35711604 0.3630567 -0.12439217 0.1931673 0.039078206
0.02499377 0.2691871 0.35599342 -0.025399365 0.0074859974 0.46471605 0.26975182 0.49607912
-0.06324154 -0.35235453 -0.058843564 0.03884018 -0.112772696 0.17420985 -0.198673 0.23041348
0.24687941 0.10071713 0.36324844 0.15092413 -0.23460852 -0.37589225 0.08490557 0.23338418
-0.1345454 -0.21316178 0.17689556 -0.7305002 -0.04178599 0.2804344 -0.4875072 0.33179384
0.3882912 0.17342934 0.5258049 -0.060953137 0.09877616 0.2526486 0.23069575 0.34265774
0.52278787 0.29095265 -0.028103106 0.1070997 -0.038730428 0.43187124 0.018934622 0.28731963
0.2555974 0.24016401 0.068724796 0.03273766 0.14671797 0.24011715 0.21702674 0.31426105
00000000: c0c5 343d a37e 33be be2d 8f3e 9538 db3d
00000010: 3691 883e 875e 693e 33f4 3dbe b9ac 983d
00000020: e262 063f a838 b53d c3ac f63e 5c05 043e
00000030: 3674 5abe 4345 71bc 5541 6b3e fdbe da3e
00000040: 4084 ba3d 17c7 abbd 21e5 ad3b 6b7b fe3d
00000050: ee49 713e 9746 c53e 0694 983e 9618 c03c
00000060: d885 0d3e 34de adbe c74d 0c3c f662 7c3e
00000070: fc02 d9be 0c56 843e 99eb 433e 712c e6bc
00000080: 4a87 583e 5b94 a13e 9305 62bc 265c f5bd
00000090: d2e4 943e 67ac 6d3e c825 993e 5e7c 71be
000000a0: 40f0 853e 248d 143e 1619 6abc ea6f 3bbe
000000b0: 29b9 05be ea92 e73e 915d e03d 922e 71bc
000000c0: ccde e23e 6375 1c3e 2513 cd3e 831e c53d
000000d0: 12e9 4a3e ab58 b03e d586 58be 9282 0f3d
000000e0: d983 833d 559e 4b3e f3cf 8a3e ead7 b63e
000000f0: 91e2 b93e 52c1 febd a6cd 453e 7810 203d
00000100: bcbf cc3c e4d2 893e c544 b63e 5412 d0bc
00000110: 194d f53b 43ef ed3e e91c 8a3e 15fe fd3e
00000120: c884 81bd d067 b4be f305 71bd e116 1f3d
00000130: 5ff5 e6bd 1164 323e ef70 4bbe 83f1 6b3e
00000140: f5cd 7c3e c844 ce3d b3fb b93e db8b 1a3e
00000150: 373d 70be f374 c0be f9e2 ad3d 43fc 6e3e
00000160: 45c6 09be 1547 5abe 1c24 353e 1002 3bbf
00000170: c927 2bbd 1995 8f3e 8b9a f9be e2e0 a93e
00000180: 1bce c63e 7697 313e 269b 063f ffa9 79bd
00000190: 284b ca3d 285b 813e 823b 6c3e d670 af3e
000001a0: 6dd5 053f bff7 943e 7c38 e6bc 1657 db3d
000001b0: cca3 1ebd 3a1e dd3e c81c 9b3c 8f1b 933e
000001c0: aadd 823e 8eed 753e 96bf 8c3d ed17 063d
000001d0: 3c3d 163e 45e1 753e 423c 5e3e d3e6 a03e

fully_connected1.weight f4 [84, 120]
-3.005136e-12 -3.060826e-13 -8.633609e-12 -1.9136189e-13 5.3706533e-33 -5.28649e-16 -2.3491034e-10 3.514e-41
-7.305121e-10 -2.9039283e-26 -3.3379e-41 -4.3729e-41 -3.996496e-08 -1.5800297e-19 -6.8260486e-09 -1.105794e-20
1.3981e-41 -6.082213e-17 -9.911982e-12 -6.8245e-41 -8.677263e-11 -4.5715137e-12 4.881083e-10 1.085476e-09
-1.7133931e-12 -7.259597e-10 -7.5636906e-11 -2.4265864e-31 1.8420102e-15 -5.2351792e-21 -8.641126e-12 5.024626e-15
-6.675281e-15 -1.0509252e-15 -1.906955e-11 -1.2941158e-15 2.0404055e-22 -1.0763636e-18 1.4116211e-28 -1.8109575e-10
-8.4003e-39 3.7278906e-25 5.2832304e-15 -1.9732165e-12 -1.6969832e-08 -4.4507734e-22 3.265e-41 -5.6683e-41
-3.0781957e-12 -3.5953732e-10 -1.0120768e-18 -1.0055581e-07 -2.2896987e-16 1.6252e-41 -5.9500227e-09 -2.4419593e-09
3.1163e-41 -1.7269488e-16 1.1904564e-28 6.9562e-41 6.6602e-41 -2.5936958e-10 -1.8968367e-11 -5.1462427e-15
2.6563694e-16 -3.823321e-09 -2.8170732e-10 -1.627886e-17 -5.3194102e-11 -2.6946305e-23 -7.454674e-16 -5.9852114e-23
-3.1089023e-10 -2.2394149e-08 -1.0618959e-09 1.725452e-10 -3.7568106e-27 -2.421413e-16 2.023401e-16 4.265201e-21
5.477404e-30 -2.9999034e-10 -5.8e-43 -2.0490163e-23 -9.712862e-16 -8.7750515e-13 7.7585925e-29 5.768066e-20
-2.239478e-08 -2.1168928e-10 -7.575353e-18 -2.8290438e-08 -3.4617773e-18 -9.369125e-16 -2.2210375e-07 1.5247519e-10
-4.2844754e-20 -7.436711e-16 1.7878e-41 -4.1770456e-08 -1.2738219e-31 3.947e-42 -1.2572605e-10 2.288438e-19
-1.7183489e-12 -1.091505e-11 -6.7752505e-14 -8.6428184e-21 1.9010695e-21 6.447567e-24 3.9764204e-31 -2.2183104e-22
3.775167e-12 -5.840426e-24 5.8779225e-33 -2.4805357e-12 -2.5467173e-09 -8.058746e-18 2.8009e-41 -4.1897e-41
-0.045824002 0.12677015 -0.047123857 0.06576657 0.33981156 -0.055989873 0.052366074 0.09179587
0.10739775 0.16259623 -0.07851483 0.2458574 0.07878261 0.030185545 0.08134126 0.09017433
0.00609222 0.026199635 0.13522136 0.2801881 -0.09244855 0.09170922 -0.08057262 -0.027557602
-0.0405404 -0.12076086 0.011133969 -0.155301 0.041881707 0.09130259 -0.024004593 0.21721019
-0.06887646 0.047954526 -0.021733267 -0.04532969 -0.03846989 0.080008835 -0.053391155 0.010287017
0.1599679 -0.28103074 0.18481979 -0.066654064 0.06824983 0.21182896 0.13962018 -0.12462648
-0.19812845 0.09847253 -0.13369729 0.030498639 0.0017132076 0.06658383 -0.29062176 -0.12831141
-0.14060183 0.08718568 -0.07977161 -0.08392444 0.09042122 0.017347055 0.11344373 0.009053443
0.0020185052 0.1472319 0.26612055 0.06291914 -0.09850424 -0.11764194 0.106565714 0.1111787
0.3246286 -0.05473366 -0.07516644 0.15339121 0.013567837 0.18900816 -0.07233617 -0.030001024
0.037150577 0.23810309 -0.31357145 0.1974947 0.14740856 -0.016535368 0.15061387 -0.076326676
0.035034303 -0.15009432 0.17959708 -0.03375628 0.123574324 0.34793827 -0.08893133 -0.114195585
0.013657221 0.0012130078 -0.19064723 0.032514732 0.016350703 -0.087552585 0.053158566 0.012686042
0.08180797 0.11591854 0.08606762 0.21070024 -0.06774409 -0.07173974 -0.15249184 -0.15533498
-0.034684293 -0.05639798 -0.10215559 -0.085515276 0.17126113 0.036399707 0.043747347 0.18042122
-5.4372e-41 6.7558e-41 -2.0621368e-36 6.6979e-41 -7.6449e-41 -4.85761e-29 -1.1477173e-34 5.5054e-41
2.2971598e-37 -2.5263e-41 -2.5613e-41 -2.3948e-41 -4.663862e-22 -6.6319e-41 -2.8650373e-25 -2.8341e-41
00000000: b877 53ac 274f acaa 51e2 17ad 4f74 57aa
00000010: 9516 df09 695f 18a6 b124 81af f561 0000
00000020: 38cd 48b0 aacb 0f95 0c5d 0080 e679 0080
00000030: f0a5 2bb3 7889 3aa0 8f8a eab1 ebe0 509e
00000040: f926 0000 0c3f 8ca4 995f 2ead 3dbe 0080
00000050: a6d0 beae 89d8 a0ac 912b 0630 cb2f 9530
00000060: 7e23 f1ab df8c 47b0 cb53 a6ae 957e 9d8c
00000070: 17bb 0427 8cc7 c59d 2c04 18ad ff07 b527
00000080: 9a80 f0a7 4c74 97a6 cfbc a7ad 7280 baa6
00000090: 7eab 761b ded7 9ea1 b9f1 3211 ec1d 47af
000000a0: 9e78 5b80 c9be e616 3359 be27 4fda 0aac
000000b0: 0ec5 91b2 3184 069c 045b 0000 029e 0080
000000c0: d89b 58ac 61a8 c5af 2e5b 95a1 24f1 d7b3
000000d0: fdfd 83a5 4e2d 0000 f470 ccb1 67cf 27b1
000000e0: df56 0000 881a 47a5 85e8 1611 e9c1 0000
000000f0: a9b9 0000 0697 8eaf f7d8 a6ad b669 b9a7
00000100: 1821 9925 4a5e 83b1 c8de 9aaf 5f25 96a3
00000110: 3cf3 69ae e94d 029a c9dd 56a6 aab6 909a
00000120: e9e9 aaaf 415d c0b2 24f2 91b0 28b7 3d2f
00000130: 96d2 9493 c095 8ba5 4248 6925 7e22 a11d
00000140: 9d30 de0e e3eb a4af 9e01 0080 302b c699
00000150: 23fa 8ba6 e9fe 76ab 25b4 c410 d231 881f
00000160: a45e c0b2 3cc1 68af 98bd 0ba3 5503 f3b2
00000170: 206f 7fa2 f805 87a6 6a7b 6eb4 f3a5 272f
00000180: 2154 4a9f 3e59 56a6 d631 0000 1a67 33b3
00000190: fe59 258c 010b 0000 bd3c 0aaf e615 8720
000001a0: 0bd6 f1ab 0405 40ad a990 98a9 1b42 239e
000001b0: 08a4 0f1d 9c6d f918 cf0a 010d b116 869b
000001c0: aed3 842c c7f0 e198 cb28 f409 5c8d 2eac
000001d0: 5302 2fb1 5aa8 14a3 144e 0000 cb74 0080
000001e0: f3b1 3bbd 09d0 013e f204 41bd a0b0 863d
000001f0: c8fb ad3e a355 65bd cf7d 563d 79ff bb3d
00000200: 5af3 db3d a07f 263e 62cc a0bd 0bc2 7b3e
00000210: c758 a13d ad47 f73c 3f96 a63d 52ad b83d
00000220: 3fa1 c73b 9ea0 d63c 7877 0a3e d174 8f3e
00000230: aa55 bdbd 0bd2 bb3d 4203 a5bd 7bc0 e1bc
00000240: b10d 26bd 7851 f7bd 406b 363c 3a07 1fbe
00000250: 278c 2b3d dafc ba3d 48a5 c4bc 596c 5e3e
00000260: 1a0f 8dbd f76b 443d f709 b2bc a0ab 39bd
00000270: 9a92 1dbd acdb a33d afb0 5abd e08a 283c
00000280: a0ce 233e 43e3 8fbe 6641 3d3e ed81 88bd
00000290: 91c6 8b3d b1e9 583e 98f8 0e3e 2b3c ffbd
000002a0: 2fe2 4abe f7ab c93d f1e7 08be 48d8 f93c
000002b0: b58d e03a 1a5d 883d 60cc 94be 1164 03be
000002c0: edf9 0fbe 688e b23d 4c5f a3bd 94e0 abbd
000002d0: c32e b93d 691b 8e3c 3055 e83d e454 143c
000002e0: e648 043b f6c3 163e f440 883e c0db 803d
000002f0: 97bc c9bd 42ee f0bd 203f da3d a9b1 e33d
00000300: b835 a63e 6730 60bd ddf0 99bd 9612 1d3e
00000310: a24b 5e3c 5b8b 413e fc24 94bd b5c4 f5bc
00000320: 342b 183d 4cd1 733e 708c a0be 0d3c 4a3e
00000330: 45f2 163e 2e75 87bc 863a 1a3e 2951 9cbd
00000340: 2180 0f3d 53b2 19be 4ce8 373e 0644 0abd
00000350: 8914 fd3d f724 b23e a121 b6bd 60df e9bd
00000360: 89c2 5f3c cafd 9e3a 0739 43be 2b2e 053d
00000370: e9f1 853c c54e b3bd ccbc 593d 1ed9 4f3c
00000380: f08a a73d b366 ed3d 3844 b03d cec1 573e
00000390: 6abd 8abd 49ec 92bd d226 1cbe 2210 1fbe
000003a0: 1e11 0ebd 9101 67bd f336 d1bd a222 afbd
000003b0: 145f 2f3e dc17 153d 6b30 333d 57c0 383e
000003c0: 9197 0080 53bc 0000 5d6d 2f84 b6ba 0000
000003d0: 1cd5 0080 624f 7690 cc8e 1887 7899 0000
000003e0: 2b56 9c02 6c46 0080 6647 0080 c242 0080
000003f0: e2f4 0c9c dfb8 0080 5456 b196 014f 0080

fully_connected1.bias f4 [84]
-7.0433964e-10 0.31541413 -1.384823e-39 -0.070394725 0.17934677 -9.365807e-06 0.22092009 0.2723131
0.25344357 -1.8509448e-08 0.016536212 0.035948645 0.13005562 -0.0032955853 0.10055896 0.03938121
0.016922949 0.22345921 0.15166207 0.09705023 0.094001606 0.3882109 0.38570175 0.25821304
0.2594353 0.039728582 -0.020727826 0.24822412 0.25769833 -0.0036881533 0.2335179 0.4303512
0.15943995 0.3532664 0.17890489 0.02752097 0.109978825 0.3725691 -2.1027232e-14 -0.20774496
0.2299665 0.624293 0.17786792 0.34474286 -0.10256479 0.15233655 -4.151809e-08 -7.054779e-10
-0.09159886 0.36515552 0.12555501 0.27153683 0.20105809 -3.8828987e-10 0.24141316 6.936e-41
-1.7355984e-15 0.09720217 0.171637 -1.0134641e-35 9.236663e-24 -0.009108071 0.18950248 0.22961892
0.10322524 0.35300493 0.23661275 -0.008027667 5.873e-42 -0.0792546 0.12612289 -0.2698006
-0.2024125 0.39852405 0.13234739 0.22989894 -5.5349176e-07 0.14294755 -1.3394997e-12 0.20740324
0.2822859 0.33676824 0.21095198 -7.767283e-09
00000000: 7f9b 41b0 f67d a13e 5314 0f80 1c2b 90bd
00000010: aea6 373e d621 1db7 e038 623e 9f6c 8b3e
00000020: 5bc3 813e b5fe 9eb2 f376 873c e33e 133d
00000030: 4d2d 053e bffa 57bb dbf1 cd3d 314e 213d
00000040: ffa1 8a3c 7ed2 643e 4d4d 1b3e 45c2 c63d
00000050: ea83 c03d 94c3 c63e b37a c53e 8034 843e
00000060: b4d4 843e 70ba 223d 67cd a9bc 772e 7e3e
00000070: 09f1 833e f2b4 71bb 511f 6f3e fe56 dc3e
00000080: 3a44 233e 55df b43e d832 373e a873 e13c
00000090: 943c e13d 61c1 be3e 7f65 bda8 18bb 54be
000000a0: 577c 6b3e abd1 1f3f 0223 363e 2382 b03e
000000b0: 7d0d d2bd 1dfe 1b3e 9f51 32b3 98eb 41b0
000000c0: 2f98 bbbd aaf5 ba3e 7e91 003e e006 8b3e
000000d0: 2ce2 4d3e f176 d5af 0335 773e 59c1 0000
000000e0: 4720 faa6 ee11 c73d 9cc1 2f3e 3c8a 5785
000000f0: bda9 3219 053a 15bc f00c 423e 3921 6b3e
00000100: c167 d33d 10bd b43e 9d4a 723e 7a86 03bc
00000110: 5f10 0000 3c50 a2bd 5c26 013e 4e23 8abe
00000120: 3945 4fbe 580b cc3e 1386 073e a16a 6b3e
00000130: aa93 14b5 d860 123e 9084 bcab 8461 543e
00000140: c787 903e e36c ac3e cc03 583e df70 05b2

fully_connected2.weight f4 [10, 84]
0.00037625284 0.17021123 6.6884524e-05 0.14112987 0.2016718 -0.0008962708 -0.18717565 0.23954263
-0.15535794 0.0038061205 0.39758748 0.20040286 -0.20989601 0.021820243 0.39534077 -0.44435108
-0.066270515 0.4919465 -0.34488714 -0.19759895 -0.24950264 -0.043451782 0.27905044 0.09723665
-0.05958361 0.11869316 0.02617368 0.23057568 -0.6348431 -0.006350781 -0.7241765 -1.0743214
-0.33990833 0.21488875 0.18418773 0.13263343 -0.37211347 -0.36312234 -3.560992e-05 -0.16599523
0.30011675 -0.880078 -0.100435466 -0.4079613 0.25732237 -0.0075640786 0.0017493231 -0.0023658716
-0.21509351 0.21914588 0.120773494 -0.26875228 -0.6086581 -4.5314664e-06 0.019967115 -7.733871e-10
-4.4750054e-06 0.22799742 0.178672 8.778342e-07 6.788987e-08 -0.032314163 0.21272768 0.25749514
-0.088288546 -0.49681044 0.07887312 -0.02177432 1.9922998e-08 -0.4150793 -0.05782703 0.25345975
0.08893386 -0.24114402 -0.3696074 -0.34711635 0.015489999 0.04215098 0.003178833 -0.55889684
0.04411573 -0.4564636 0.061978508 -0.00042590863 0.00011422582 -0.12355557 -1.7856648e-06 -0.9053122
-0.9282095 -0.00084424077 0.15370527 -1.186731 -0.046138823 6.926135e-06 -0.16924119 0.22230262
-0.11010551 -0.03065421 0.04364583 0.05082091 0.47423244 0.14436027 -0.2142195 0.45370442
-0.3733064 0.34428084 -0.28471777 -0.5426454 0.3702523 -0.35213524 0.014710725 -0.30144817
0.28466842 8.181543e-05 0.1798056 -0.08725588 -0.017771352 0.55653137 -0.49056926 -0.06835658
0.09577858 -0.5920306 6.1611787e-09 0.4734127 -0.3281401 0.39842787 -0.3667935 0.50423765
0.28403983 -0.19471416 -0.00025640876 0.0006014253 0.41849643 -0.39881134 -0.09474386 0.30091375
0.5299146 -1.5765378e-18 -0.37056983 6.915749e-20 -1.3584887e-06 0.28497875 -0.1442785 -9.6257736e-08
5.0406774e-15 -0.0016788677 0.3998072 -0.063397475 -0.43965185 0.41832864 -0.55451864 0.12692286
-4.6907065e-11 -0.4637088 -0.32206237 0.29694843 -0.15385167 -0.08040219 -0.61948 0.8218792
-0.00080109533 -0.4780309 2.5637958e-06 -0.3429372 0.30577734 -0.090109944 0.25167996 -0.0030354143
0.009749012 -0.07342305 -5.2314197e-05 0.37759674 0.089391716 0.02262774 0.16761906 -0.12921609
0.109069176 0.011363126 0.10406876 0.31021604 -0.16213094 0.010975606 0.33964565 0.22732568
-0.61329913 -0.09515371 0.0129350005 -0.34107885 0.325147 -0.39699993 -0.27290645 -0.00041119233
0.20137358 0.22547954 -0.02089426 -0.25534314 0.21699779 -0.0036408263 0.11499242 -0.12954563
-0.045772493 -0.1676237 0.6431781 -0.31554937 -0.19731142 -0.55062664 -0.0006755892 0.48832542
0.010769266 -0.08320458 0.3882516 0.5979125 -0.16155393 0.27274427 -0.005497032 -0.0059070555
0.14898552 0.21710701 0.048297595 -0.3696584 -0.2926244 -1.6315694e-08 -0.5490254 3.073525e-12
2.7899592e-05 0.18043631 -0.26508453 1.8753809e-06 -2.057863e-06 0.015572342 0.35202077 0.24316151
0.21601778 0.16699013 0.08069286 -0.21283396 1.90928e-06 0.37831828 0.10390188 -0.009173697
0.1599587 -0.27100432 -0.39669862 0.03232989 0.011155229 0.12118933 0.00022951294 0.36281922
-0.6223235 -0.46429333 -0.32019642 -0.00016238251 -0.010026943 -0.5252488 -0.00018574017 0.05245803
00000000: cd43 c539 da4b 2e3e 5b44 8c38 5984 103e
00000010: 0d83 4e3e b7f3 6aba f9aa 3fbe aa4a 753e
00000020: 2716 1fbe 1b70 793b 9690 cb3e 6836 4d3e
00000030: fbee 56be 5ec0 b23c 1b6a ca3e fc81 e3be
00000040: d6b8 87bd 69e0 fb3e 0c95 b0be 6157 4abe
00000050: 9f7d 7fbe 7ffa 31bd b3df 8e3e 0224 c73d
00000060: f20d 74bd 6615 f33d 2f6a d63c 081c 6c3e
00000070: 1485 22bf 361a d0bb a263 39bf 5d83 89bf
00000080: 7708 aebe cc0b 5c3e b59b 3c3e 0fd1 073e
00000090: a885 bebe 2ceb b9be dc5b 15b8 a7fa 29be
000000a0: e7a8 993e cb4c 61bf 1cb1 cdbd 4ee0 d0be
000000b0: c2bf 833e 17dc f7bb 8b49 e53a bd0c 1bbb
000000c0: 7941 5cbe c767 603e 1858 f73d e699 89be
000000d0: 04d1 1bbf 000d 98b6 1392 a33c 4796 54b0
000000e0: 0128 96b6 2878 693e cbf5 363e 4fa4 6b35
000000f0: daca 9133 db5b 04bd 49d5 593e 67d6 833e
00000100: a0d0 b4bd f05d febe 3b88 a13d 0f60 b2bc
00000110: 2323 ab32 4685 d4be 09dc 6cbd 7ac5 813e
00000120: f522 b63d 75ee 76be 2e3d bdbe 3cb9 b1be
00000130: c4c9 7d3c 82a6 2c3d f853 503b dd13 0fbf
00000140: b2b2 343d 99b5 e9be 2ddd 7d3d 7d4c dfb9
00000150: 858c ef38 b40a fdbd faaa efb5 8ac2 67bf
00000160: 239f 6dbf 0a50 5dba ea64 1d3e cde6 97bf
00000170: 10fc 3cbd 0c67 e836 904d 2dbe 4ca3 633e
00000180: ff7e e1bd 8a1e fbbc f8c5 323d 9629 503d
00000190: 98ce f23e 2ed3 133e 5b5c 5bbe f24b e83e
000001a0: 0422 bfbe 9445 b03e 87c6 91be cfea 0abf
000001b0: b691 bd3e 124b b4be 4105 713c 6a57 9abe
000001c0: 0fc0 913e 5394 ab38 f61e 383e 36b3 b2bd
000001d0: 3a95 91bc d778 0e3f e52b fbbe 89fe 8bbd
000001e0: 8f27 c43d 518f 17bf 4db2 d331 2663 f23e
000001f0: fb01 a8be bdfe cb3e 5ccc bbbe b815 013f
00000200: ab6d 913e 2663 47be 9a6e 86b9 f8a8 1d3a
00000210: 2a45 d63e 0031 ccbe 1209 c2bd 5e11 9a3e
00000220: 7ca8 073f eaa7 e8a1 54bb bdbe 234b a31f
00000230: 5155 b6b5 bce8 913e bebd 13be 40b6 ceb3
00000240: 0b9c b527 740d dcba 88b3 cc3e 89d6 81bd
00000250: 0c1a e1be 2c2f d63e eff4 0dbf 11f8 013e
00000260: a94c 4eae 3d6b edbe 5ce5 a4be a009 983e
00000270: 4b8b 1dbe e7a9 a4bd 3e96 1ebf ad66 523f
00000280: 9900 52ba 77c0 f4be ad0d 2c36 7795 afbe
00000290: d98e 9c3e 908b b8bd 32dc 803e cded 46bb
000002a0: 52ba 1f3c d35e 96bd f16b 5bb8 5c54 c13e
000002b0: 0113 b73d cf5d b93c 55a4 2b3e 3951 04be
000002c0: a95f df3d 682c 3a3c 0122 d53d a3d4 9e3e
000002d0: a705 26be 07d3 333c 09e6 ad3e 10c8 683e
000002e0: 2c01 1dbf f3df c2bd 53ed 533c e3a1 aebe
000002f0: ab79 a63e 9343 cbbe 65ba 8bbe 4d95 d7b9
00000300: e034 4e3e 1ce4 663e 702a abbc 56bc 82be
00000310: ab34 5e3e ee9a 6ebb 2581 eb3d 9ca7 04be
00000320: f07b 3bbd 8ca5 2bbe 52a7 243f b08f a1be
00000330: 010c 4abe def5 0cbf 061a 31ba ca05 fa3e
00000340: 9371 303c 2a67 aabd eac8 c63e cb10 193f
00000350: 656e 25be 23a5 8b3e 7220 b4bb f98f c1bb
00000360: a98f 183e 4d51 5e3e b3d3 453d de43 bdbe
00000370: ded2 95be 9726 8cb2 ee8c 0cbf b447 582c
00000380: eb09 ea37 4cc4 383e 29b9 87be 99b5 fb35
00000390: d119 0ab6 2323 7f3c 113c b43e 55ff 783e
000003a0: c433 5d3e 76ff 2a3e 4c42 a53d 25f1 59be
000003b0: 2e21 0036 efb2 c13e 82ca d43d 464d 16bc
000003c0: 37cc 233e 14c1 8abe 151c cbbe 596c 043d
000003d0: 6cc4 363c 1d32 f83d 69a9 7039 71c3 b93e
000003e0: 9850 1fbf dbb7 edbe c9f0 a3be 3945 2ab9
000003f0: 0c48 24bc b576 06bf 3fc3 42b9 3bde 563d

fully_connected2.bias f4 [10]
-0.018175166 -0.091767095 -0.22115816 -0.1698584 0.20225924 0.0241135 0.0043703853 -0.043987144
0.23356543 0.19026592
00000000: 16e4 94bc 63f0 bbbd 4977 62be 5cef 2dbe
00000010: 0c1d 4f3e ad89 c53c 7335 8f3b dd2b 34bd
00000020: c72b 6f3e 12d5 423e
