mnist_new.pth (torch, 180807 bytes, 10 tensors)

conv1.weight f4 [6, 1, 5, 5]
000000 9f 43 83 3d 67 25 6a 3d d7 53 81 be 8c 71 b4 be
       0.06409382 0.057164576 -0.25259277 -0.3524288
000010 c1 e4 ef be c1 0d bf bd a6 ed 1a 3e f9 eb ed 3e
       -0.46854213 -0.09328795 0.15129718 0.46469095
000020 d7 76 08 3e 62 dd b8 3d 4d 49 ec bd 82 e0 ef 3d
       0.13326584 0.090266004 -0.115374185 0.11712743
000030 b1 ff 16 3f dd 08 db 3e d9 7d 60 3e b1 13 4b bc
       0.58983904 0.427802 0.21923007 -0.0123948315
000040 64 9e 6d be 70 d4 8b 3e 64 d9 e3 3d c4 04 bc 3d
       -0.23204952 0.27310514 0.11125448 0.091805965
000050 9a 6d d9 bd 9d 51 fa be 26 c4 f0 be 6f 95 78 be
       -0.10616608 -0.4889039 -0.4702465 -0.24275754
000060 c5 5f 78 3c fb 86 94 08 ee e1 98 03 48 e4 00 80
       0.015159552 8.93916e-34 8.985628e-37 -8.1892e-41
000070 31 7e 00 00 78 21 00 00 ba d5 80 0a 24 3b 94 03
       4.5269e-41 1.2006e-41 1.2406347e-32 8.712236e-37
000080 c7 48 01 00 23 68 00 80 51 1d 00 00 81 a7 13 8d
       1.17943e-40 -3.7357e-41 1.0517e-41 -4.54995e-31
000090 2e a3 f4 86 1d 9b 87 80 40 51 00 00 d3 0d 00 00
       -9.202237e-35 -1.2453436e-38 2.9147e-41 4.959e-42
0000a0 f8 c2 2f 8d ae 04 83 0a a0 82 9c 02 71 bb 00 00
       -5.4160724e-31 1.2616601e-32 2.2997115e-37 6.7241e-41
0000b0 4d 67 00 80 82 bc 17 8e 0b 7e 3a 0a 7f 89 79 03
       -3.7057e-41 -1.870295e-30 8.97928e-33 7.333236e-37
0000c0 4e 43 00 80 94 b9 00 00 ef 7f a7 bd 91 2d 20 be
       -2.4144e-41 6.6573e-41 -0.08178698 -0.15642382
0000d0 3f c5 4c bd 70 1e 13 3e 3f 3b 40 3d cc 59 a7 bc
       -0.049992796 0.1436708 0.0469315 -0.02042856
0000e0 79 cc 00 3e dc c2 fd 3e f7 ea 8a 3e 59 19 88 3c
       0.12578 0.49562728 0.2713239 0.01661365
0000f0 2f 55 c1 3e 92 67 fe 3e ec bd ff 3e 1e 79 9e bd
       0.37760302 0.49688393 0.49949586 -0.07737945
000100 13 d1 cc be fd 48 77 3e 1b 72 77 3e ec b0 ac be
       -0.4000326 0.24148937 0.24164622 -0.3372873
000110 d6 ec 1b bf 8a 1f 8c be f4 80 ca 3d 41 50 02 bf
       -0.6090826 -0.27367812 0.09887877 -0.5090371
000120 00 5c 1c bf 8b cb 0a be e8 9c 51 3e 60 ba 35 be
       -0.6107788 -0.13554208 0.20470011 -0.17746878
000130 01 7e 1d be 1f c9 ac 3e cb e5 e3 3d be 25 6d bd
       -0.15380098 0.33747193 0.11127814 -0.057897322
000140 2a 99 3e be bb 8b 23 be ea ea 29 bb df 42 91 3e
       -0.18613115 -0.15971272 -0.0025927373 0.2837133
000150 50 e4 31 3e bb 43 d5 be ab 7d 09 bf 55 58 07 3e
       0.1737225 -0.41653237 -0.5370738 0.1321729
000160 23 28 83 3e da a7 73 3e 27 cc ac be ab 85 c1 be
       0.2561656 0.23794499 -0.33749506 -0.37797293
000170 15 e6 49 3e bf dc 45 3e 52 ad 98 3d 1a fc a9 be
       0.19716676 0.19322489 0.07454933 -0.3320015
000180 bb 0e 0f be 1e a6 71 3e e7 16 c5 3d f5 23 4c 3e
       -0.13970463 0.23598525 0.09623509 0.19935592
000190 67 cf 8e 3e 5b 32 30 3e 62 ac 1d bd dc fb 7c 3e
       0.2789261 0.17206709 -0.038494475 0.24705452
0001a0 75 b9 7f 3e 22 5a a2 3d d1 32 02 3e bc eb 05 3e
       0.2497309 0.07927348 0.12714697 0.13078207
0001b0 53 87 18 3b 3f 2c 42 3e 3b 68 e3 be 0a af dc bd
       0.002327402 0.18962191 -0.4441546 -0.107755736
0001c0 68 49 1c bd 48 ab 27 be a4 03 7a bd 51 d7 be be
       -0.038155943 -0.16373932 -0.06103863 -0.37273648
0001d0 68 6f 3f bf 7c ee 31 bf 96 cd d8 be 76 17 41 be
       -0.7477937 -0.69504523 -0.4234435 -0.18856606
0001e0 cc 09 c1 3e 63 b0 b3 3e 95 d6 41 3e 3d f0 1c 3e
       0.37702787 0.3509551 0.18929513 0.15326019
0001f0 00 22 36 be 15 96 34 3e b4 87 69 bd 6a cd bd bb
       -0.17786407 0.17635377 -0.057014182 -0.0057923095
000200 f7 ee 83 be 63 6c fe bd 23 b0 2d bd df 1e 1a 3e
       -0.25768253 -0.12423017 -0.042404305 0.15050839
000210 47 cb 81 3e a0 8c be be 94 49 07 be a9 ca 9e 3e
       0.253504 -0.37216663 -0.13211662 0.31013992
000220 c7 57 46 3e 3d b2 ba 3e 81 b5 b4 be c4 cf c1 be
       0.19369422 0.3646411 -0.35294726 -0.37853825
000230 45 d9 91 3d d1 93 c5 3e fa 73 49 3e d5 55 ab be
       0.07121519 0.38589337 0.19673148 -0.33463922
000240 79 fc e4 be 79 a2 82 3d 16 ac 37 3e b1 d4 ce 3c
       -0.4472387 0.063786454 0.1793674 0.025247904
000250 2c f6 74 be 1b 95 21 be
       -0.23922032 -0.15779535

conv1.bias f4 [6]
000000 96 6e 1c bd 57 ab b9 9e 7c fc 63 be 7b 5c a4 3d
       -0.0381914 -1.9658501e-20 -0.22264284 0.08025452
000010 ff 17 fb 3d e6 20 39 3e
       0.12260436 0.18078956

conv2.weight f4 [16, 6, 5, 5]
000000 80 a3 67 bd 9d 21 4c 3e c7 93 4b 3e 4d 3a dc 3d
       -0.05655241 0.19934697 0.19880591 0.107533075
000010 c0 79 76 3c c2 f8 26 3e 0f dc 01 3f 21 d0 f7 3e
       0.015043676 0.16305831 0.5072641 0.48400977
000020 37 f1 5f 3e 3c ce 01 3e a7 8a 33 3e 81 b2 f0 3e
       0.2186936 0.12676328 0.1753336 0.47011188
000030 16 80 cd 3e 0b 73 e7 3d a3 db 9f bd d7 31 ea 3d
       0.40136784 0.113012396 -0.07805564 0.114352874
000040 0f 4d 94 3e a8 c5 48 3d ab 3e a6 bc a2 9f 02 be
       0.2896504 0.049016625 -0.020293554 -0.12756208
000050 ed 1e f6 bc 4e 93 e5 3d c0 5f 53 be 03 3a ee be
       -0.030044043 0.11209737 -0.20641994 -0.46528634
000060 c5 b2 1f be b8 6b 00 80 13 da 01 80 15 93 00 00
       -0.15595539 -3.8642e-41 -1.70066e-40 5.2763e-41
000070 c9 64 00 80 c8 de 00 80 11 a6 00 00 69 55 00 80
       -3.6155e-41 -7.9919e-41 5.9573e-41 -3.064e-41
000080 0c fb 01 00 12 3f 01 80 4b f5 00 00 34 0a 00 00
       1.81894e-40 -1.14461e-40 8.7995e-41 3.66e-42
000090 5a 82 00 80 ab 07 01 00 a4 1b 01 00 65 03 00 80
       -4.6761e-41 9.4586e-41 1.01751e-40 -1.218e-42
0000a0 e6 4a 00 80 88 34 01 80 89 58 02 00 9d 2a 02 00
       -2.6868e-41 -1.1068e-40 2.15431e-40 1.98958e-40
0000b0 30 49 01 80 a6 7e 00 00 d3 fb 02 00 a7 13 02 80
       -1.1809e-40 4.5433e-41 2.74009e-40 -1.90721e-40
0000c0 7a 25 01 00 91 50 00 00 f3 21 c5 3e 9f 1e a8 3e
       1.0528e-40 2.8902e-41 0.38502464 0.32835862
0000d0 49 28 6b 3e 05 2c 4b bd ba cf 89 be 51 96 87 3e
       0.22964586 -0.049602527 -0.26916295 0.2648187
0000e0 0a a1 1f 3e b7 6a 30 be 75 a7 be be 34 ec 8d be
       0.15588775 -0.17228208 -0.37237135 -0.2771927
0000f0 bf ca 05 3e 7b d8 55 3c a1 bb 80 bd de f9 0d be
       0.13065623 0.013052101 -0.062857874 -0.13864848
000100 2e b7 84 be 35 7a c1 bc cd 42 e7 3d 1a cf d1 3d
       -0.25921005 -0.023617843 0.11292038 0.102445796
000110 5a 73 57 3c 09 4c 70 be 6c 33 85 3d 08 67 2d 3e
       0.013150061 -0.23466505 0.065039486 0.16933835
000120 5f 9f 4a 3e 5f 79 38 3d 99 15 ca be 48 05 cc be
       0.19787358 0.045037623 -0.39469603 -0.3984778
000130 9e 75 9e be 4b 19 8f be 45 4a 64 be 47 9d 84 be
       -0.3094911 -0.27948985 -0.22293957 -0.25901243
000140 1f 27 8e be 14 a6 03 be 3e ad 53 be 2b 96 a0 be
       -0.27764222 -0.12856323 -0.20671555 -0.3136457
000150 15 0f 0a be 0d 70 23 be d7 dc 76 be 38 59 32 be
       -0.13482316 -0.15960713 -0.24107681 -0.17416847
000160 40 e0 3d bd de 32 32 bd f3 a8 7c be 7d 11 fb bd
       -0.04635644 -0.043505542 -0.24673824 -0.12259195
000170 86 ad 2b be 29 a7 9f 3d fb 58 19 3d e2 58 9c be
       -0.16765413 0.07795555 0.037438374 -0.30536562
000180 63 78 d3 bd 78 f3 89 bd 70 cd 0b be 30 4f 97 bd
       -0.10325696 -0.06735891 -0.13652587 -0.07388151
000190 76 56 0e bf 88 0c 8d bc aa f0 85 3e 4e 64 47 3e
       -0.5560068 -0.01721789 0.26160175 0.19471857
0001a0 99 94 da 3d 25 f9 a9 be 3b b5 54 bd d4 90 f1 3d
       0.10672874 -0.33197895 -0.051930647 0.11795202
0001b0 c8 74 2c 3d 0e 10 a4 3d 73 8a 65 be 09 ea 1c be
       0.04210356 0.08010875 -0.22416095 -0.15323652
0001c0 79 cb fb bc 57 98 db bd 9b da 84 3d 3d e1 91 be
       -0.030736672 -0.10722416 0.06487008 -0.28492156
0001d0 e5 5a 5d be e5 d6 9c bd be b4 d4 bd e0 29 7a be
       -0.21616705 -0.076581754 -0.10386036 -0.24430037
0001e0 a8 d8 42 be 0f a9 be bd c7 52 0d 3c 60 76 d5 3b
       -0.1902796 -0.09309589 0.008625693 0.0065143555
0001f0 c3 df b3 be 59 32 8f 3d dc c4 7a 3c ad b5 b3 3c
       -0.35131654 0.06992025 0.015305724 0.021937216
000200 8c de 5d 3c f5 58 c2 bd c7 d3 05 3e 71 2e 47 3e
       0.013541829 -0.094896235 0.13069068 0.1945131
000210 94 b9 17 3e fd 67 73 3e eb 8e 79 3d cf a9 ac 3c
       0.14816886 0.23770137 0.060927313 0.021077065
000220 11 e5 b4 3d 1d 2e 81 3e aa 3a 82 3e 01 f1 07 3e
       0.088327534 0.25230494 0.25435382 0.1327553
000230 c8 81 2f 3d bb 8f 00 3e c3 96 c6 3d 47 55 17 3e
       0.04284838 0.12554829 0.09696724 0.14778624
000240 e1 ab 01 3e e2 d8 e1 bd ac 50 3d be 92 1d c4 bd
       0.12663223 -0.11027695 -0.18487805 -0.095759526
000250 24 b4 52 bd 4f 62 84 bd 23 39 2f 3e 2b c0 a1 bd
       -0.051441327 -0.064640634 0.1711164 -0.07897981
000260 70 b4 1f be 58 42 8a 3c ef 32 32 bd 7d 57 85 3e
       -0.15596175 0.016877338 -0.043505605 0.2604331
000270 d5 40 df bd d4 39 83 be 96 03 83 bc 46 e9 30 3e
       -0.109010376 -0.25630057 -0.01599292 0.17276487
000280 a4 c6 80 be 42 97 f0 be ed f9 6c be 51 66 1d 3e
       -0.2515155 -0.469904 -0.23142214 0.15371062
000290 2e 1a 42 3e 6e ba 8f bd da 6e ed 3d ba db 9d 3e
       0.189553 -0.070179805 0.11593409 0.308317
0002a0 49 1e f1 3e da 90 43 3e ac a0 97 3d f5 f9 a1 3e
       0.47093418 0.19098225 0.074036926 0.31636015
0002b0 84 fe e2 3e e0 0c bd 3e 80 f2 d9 bd d9 57 01 80
       0.44334805 0.36923885 -0.10641956 -1.23349e-40
0002c0 8f f7 00 00 03 f4 00 80 2f 20 00 00 23 5b 00 80
       8.8807e-41 -8.7535e-41 1.1545e-41 -3.2694e-41
0002d0 05 a2 01 00 70 d0 00 00 f6 b7 00 00 3b 2e 00 00
       1.49957e-40 7.4773e-41 6.5993e-41 1.6584e-41
0002e0 af e4 00 00 56 1e 01 80 67 ee 00 00 48 fa 00 80
       8.2036e-41 -1.02718e-40 8.5523e-41 -8.9784e-41
0002f0 ff d4 00 80 ee 63 01 80 dd 57 01 00 be 05 00 80
       -7.6409e-41 -1.27684e-40 1.23355e-40 -2.06e-42
000300 82 dc 00 80 d6 51 00 80 52 75 01 00 10 f8 01 80
       -7.9103e-41 -2.9357e-41 1.33922e-40 -1.80824e-40
000310 5a 2b 01 80 78 4c 00 00 4f 20 01 00 91 1a 00 00
       -1.07387e-40 2.7432e-41 1.03426e-40 9.53e-42
000320 bc 26 72 3e 6d a5 3b 3e 58 d4 0a 3e e3 0e 07 3e
       0.23647588 0.18324824 0.13557565 0.13189273
000330 84 96 c5 3d 4f 7d de 3d 1c 45 ad 3e 27 6f cf 3e
       0.09647849 0.108637445 0.3384179 0.4051449
000340 45 97 81 3e c9 30 f6 3d 78 f1 25 3e a1 f6 11 3e
       0.25310722 0.12021024 0.16205394 0.14254238
000350 22 18 6a 3d b0 44 99 bd 1b e1 49 3e ca b9 e9 be
       0.05715192 -0.07483804 0.19714777 -0.45649558
000360 e8 f9 8a be f8 3a 81 be b0 6f 0d be eb d6 92 bd
       -0.27143788 -0.25240302 -0.13812137 -0.071698986
000370 c2 ae 86 be 0f a8 9e be 3f df 47 be 4c b4 3b be
       -0.26305205 -0.30987594 -0.19518755 -0.18330497
000380 97 48 97 be 47 b7 14 bd 38 b7 1a be cb f7 2d 3e
       -0.2954757 -0.0363076 -0.15108955 0.16989057
000390 39 d3 ac 3e 60 d9 f6 3d 11 64 f1 bc 03 45 de 3d
       0.337549 0.1205318 -0.02946666 0.10853007
0003a0 1b 96 8d 3e 55 86 0d 3e ec ba 6d be fb ce 27 3e
       0.27653584 0.13820775 -0.23215836 0.1638755
0003b0 d6 07 22 3e 64 e2 c9 3d 57 32 9c be 3f 0a 9a be
       0.15823302 0.09857634 -0.30507156 -0.30085942
0003c0 ff 2a d2 3d 6e 58 8e 3d c6 11 84 bc e6 87 50 be
       0.10262107 0.069504604 -0.016121756 -0.20364341
0003d0 5a 3f 8d bc f0 1d a4 be 64 fe 19 be 92 9d ab bc
       -0.017242122 -0.3205409 -0.15038449 -0.020949159
0003e0 5d 81 8a bd bc 55 54 be 86 4e 84 3e 66 41 05 3e
       -0.06762955 -0.2073583 0.2584116 0.13013229
0003f0 6e 8c 4f bd 77 91 35 be 21 19 84 be 71 a5 ee 3d
       -0.050671034 -0.17731272 -0.25800422 0.11652649

conv2.bias f4 [16]
000000 55 94 54 be 4d 07 5a be da 69 9b 3c 54 78 d7 bd
       -0.20759709 -0.21291848 0.018971372 -0.10520998
000010 c4 06 24 be 76 82 2c be d3 f9 02 be 1f 66 e0 3d
       -0.16018206 -0.16846642 -0.12790613 0.10956978
000020 a1 01 5d bd b2 9f 35 3e bc 7c 25 be 85 5c eb bc
       -0.05395663 0.177367 -0.16160864 -0.02873064
000030 a9 b3 d0 3d 3c 72 03 3e e3 d0 91 be 95 e0 c3 3d
       0.101905175 0.12836546 -0.2847968 0.0956432

conv3.weight f4 [120, 16, 4, 4]
000000 13 c7 82 bd 6f 6f 9d 3c 51 98 26 3c 66 13 e1 bb
       -0.06385627 0.019218175 0.010168151 -0.0068687676
000010 18 95 0d bd 3b e9 13 3e a7 a1 ef 3a e2 f0 c7 bb
       -0.034566015 0.14444439 0.0018282429 -0.0061017135
000020 7e 92 cd bc 93 77 84 bc 63 b0 40 3d d0 3f 5b bc
       -0.025094267 -0.016170299 0.047043215 -0.013381913
000030 87 94 3a bb c5 49 4e 3e 3b a3 af 3d 12 f4 83 3d
       -0.0028469877 0.20145328 0.085760556 0.06443037
000040 56 84 38 3d 85 85 df 3d ec f9 7a bc ae 94 2d be
       0.04504808 0.10914139 -0.015318375 -0.16951248
000050 67 f9 1e bd f0 43 b8 bd 5a 6e 2b bd 4e 01 ad 3d
       -0.038812067 -0.08997333 -0.041853286 0.084475145
000060 78 c0 de bd ae 3a 6a 3d 62 01 20 3e ce 1c 18 3e
       -0.10876554 0.057184868 0.15625528 0.14854738
000070 e4 ae b6 3d 38 d5 1e bd 64 f2 12 be be d7 45 be
       0.089200765 -0.03877756 -0.14350277 -0.1932058
000080 95 57 59 3d 25 bc 5d 38 2b 4a c7 3c f6 b6 9c 3d
       0.05306204 5.286573e-05 0.024327358 0.076520845
000090 86 1d ad 3d e7 bf d3 bc a0 76 5a 3c 0d d5 a4 3d
       0.08452897 -0.025848342 0.0133339465 0.08048449
0000a0 f0 e4 83 3c c2 cd 8d bd 03 09 cd bd 7f 53 60 be
       0.016100377 -0.06924011 -0.100114845 -0.21906851
0000b0 81 4b a0 3c 02 03 13 3e 85 a2 53 3d eb 8c ad bc
       0.019567253 0.14356616 0.051668663 -0.021185359
0000c0 e9 74 b1 3d 7b 7f ad 3d d8 42 97 be 94 e6 0d be
       0.08664877 0.084715806 -0.29543185 -0.1385749
0000d0 4a 74 1a be 19 31 33 be 46 1f a9 bc 34 f5 1a 3e
       -0.15083423 -0.17499198 -0.020644795 0.151326
0000e0 81 6b 0a 3e a9 bb ce bd c2 6a 68 be 22 27 ae be
       0.13517572 -0.10094387 -0.22696975 -0.3401423
0000f0 99 82 9d 3d de b5 42 3e 13 a9 f2 3c 8d 99 95 bc
       0.07690925 0.1901469 0.029621636 -0.018261695
000100 1f ca f1 bb 45 30 29 3e 50 10 d7 3d e7 ee 23 be
       -0.007378831 0.1652232 0.10501158 -0.16009103
000110 0e dd 09 bd 94 5c 06 bd 77 8c cf bd da a1 d1 bd
       -0.03365808 -0.032803133 -0.101342134 -0.10235949
000120 88 e3 17 be 97 e6 24 3e 7b 11 8d 3d cf 4c fe 3c
       -0.1483289 0.16103588 0.068881 0.031042485
000130 21 3a 8f bc 6b 05 92 bd 08 65 3a bd 9d cc a2 bd
       -0.017483773 -0.0712994 -0.045506507 -0.07949183
000140 1a 80 fb bd 4a f0 ae bc cb 19 0f be 30 73 b9 bd
       -0.12280293 -0.021354813 -0.13974683 -0.090551734
000150 41 e5 16 3c a8 4d ce 3d f6 21 22 bb e7 5f 93 3c
       0.009209932 0.100734055 -0.002473948 0.017990066
000160 78 03 0a bd 3f 50 78 3e 31 3d 3b 3e c9 a5 82 bd
       -0.033694714 0.24249361 0.18285061 -0.06379277
000170 8d 9d 22 bd a5 7d 5b bd e1 cb be 3e d0 da 7a 3e
       -0.039701033 -0.05358662 0.37264922 0.24497533
000180 08 10 29 3d a9 51 b2 3d a6 81 53 be 3d b5 43 be
       0.041275054 0.08706982 -0.20654926 -0.19112106
000190 ba bf 54 3d 6e cc 3a be 2b 69 90 be ea 77 87 3d
       0.051940657 -0.18242046 -0.28205237 0.06614669
0001a0 e1 e7 d1 3d 8d 77 35 be de 80 73 be 05 3b d7 3c
       0.102493055 -0.17721386 -0.23779628 0.02627326
0001b0 ba 6f ec bd 30 0a ef bd c2 2b f3 3c 97 86 3f 3c
       -0.11544748 -0.11671865 0.029683951 0.011689804
0001c0 17 ee 4c 3c 1a b5 81 bd 97 15 01 be b8 68 ad bd
       0.012507937 -0.063333705 -0.12605892 -0.08467239
0001d0 af 1d 73 3d 2b f6 2f be 78 6e 08 be a9 30 c6 3d
       0.05935448 -0.1718375 -0.1332339 0.0967725
0001e0 cc 25 28 3e ad 1a 37 bd c8 e7 80 bd e8 ff 51 bd
       0.16420668 -0.044703174 -0.06294209 -0.05126944
0001f0 59 80 0c 3d 62 c7 0e be d6 61 87 be 8f 5f 21 be
       0.03430209 -0.13943246 -0.2644183 -0.15759109
000200 f4 9d 88 bd bf 0a 23 bc 94 b1 2d bd 82 fb 27 3c
       -0.06670752 -0.009951293 -0.04240568 0.010252835
000210 ab 50 24 3d 62 b7 2d 3d 5d b0 75 bd 1b 82 c4 bb
       0.040115993 0.042411216 -0.059982646 -0.005996955
000220 39 5a ba 3d a2 70 12 3e c0 e9 cd bc 53 4f cd bd
       0.0909924 0.14300779 -0.025135875 -0.100248955
000230 32 fc 37 3d 55 39 f9 bc 11 14 3b be 6d 9d 39 be
       0.044918247 -0.030422846 -0.18269373 -0.1812646
000240 b2 a1 fe bc 62 d3 29 be c5 a3 71 be ff 4e 15 bd
       -0.031082962 -0.16584542 -0.2359763 -0.03645229
000250 1c d7 df 3b 31 d5 0c be 26 ee 51 be c1 74 be 3d
       0.006831063 -0.13753201 -0.20501003 0.09299613
000260 ac ad 54 3d f3 bb e7 bd 08 86 87 be c7 ae 8a bb
       0.05192344 -0.11315145 -0.26469445 -0.004232261
000270 55 2a 1e be ef 56 d6 bd b0 d8 26 3e c5 d0 85 3d
       -0.15445836 -0.104658 0.16293597 0.0653396
000280 18 f5 23 3b 92 b7 c9 bb e4 42 9f 3d 25 12 f7 3d
       0.0025017913 -0.0061559165 0.0777643 0.12064008
000290 db 27 3e be 97 6f 9f bd 47 f4 73 3d 2c 20 8b 3e
       -0.18569891 -0.07784956 0.059559133 0.27172983
0002a0 95 89 07 3e 05 86 e8 bd 0a c1 cb bd 6e c6 a1 bd
       0.13236077 -0.11353687 -0.09948929 -0.078991756
0002b0 29 3a 49 3e e0 4b 0b 3e 94 6c 38 3c d1 73 48 be
       0.19651093 0.13603163 0.011256356 -0.1957543
0002c0 56 6e 2e 3d 7a bb 3a be 13 fc aa bd 16 46 65 3d
       0.042585693 -0.18235579 -0.083488606 0.055975042
0002d0 30 7e 88 3a 0b 3e 89 bd 27 56 9c ba c6 98 1e be
       0.0010413583 -0.06701287 -0.0011927531 -0.15487966
0002e0 62 58 a6 bc 9d 6c 1e be a2 d1 4f be 29 0d b5 be
       -0.020305816 -0.1547112 -0.20294812 -0.35361603
0002f0 73 09 b2 bd 0b 29 98 3d c8 12 4e 3e 26 5b 13 3e
       -0.086932085 0.07429703 0.20124352 0.14390239
000300 56 fc 00 bd 82 cd 2b 3c d9 14 19 be 98 04 3f be
       -0.031490646 0.010486009 -0.14949359 -0.18654096
000310 74 39 9e bd f2 95 85 bc 05 74 83 bd 17 06 86 be
       -0.07725802 -0.016306851 -0.06418613 -0.2617652
000320 45 ca 2c be d3 a2 4d bd d7 2a 6d 3d f9 88 aa bd
       -0.16874035 -0.05020411 0.057902183 -0.08326907
000330 3f 53 27 be 72 72 d9 bd d5 5d e8 3d f8 b3 82 3e
       -0.1634035 -0.10617532 0.11346022 0.2552793
000340 90 c0 98 3d b7 34 2e 3e ea f0 26 3e 91 59 16 3d
       0.074586034 0.17012297 0.16302839 0.03670651
000350 ce ad a8 3d 92 e6 47 3e a3 3d 9c 3d 54 48 a4 be
       0.082362756 0.1952155 0.07628944 -0.32086432
000360 4f 2a 3e 3e ca eb 81 bd 56 6e 94 3d fc 71 df bd
       0.18570827 -0.06343801 0.072476074 -0.10910413
000370 b6 a2 f3 3d 16 da 93 3d 54 fb 21 3e 2c 2d a7 3d
       0.11896269 0.07219331 0.1581853 0.08162913
000380 78 c9 74 bd b8 1e 1f bd ab 5b 2a 3c 2b 22 28 be
       -0.059762448 -0.038847655 0.010397832 -0.16419284
000390 e1 a9 6c 3d c6 62 09 3e e4 82 b4 3d 07 72 d1 3d
       0.057779197 0.13416585 0.08814028 0.10226827
0003a0 66 e7 98 3d 04 f2 2f 3e 31 c0 28 3e 2f 5d 43 3e
       0.07466011 0.17182165 0.16479565 0.19078515
0003b0 f8 74 50 3e 6c 7e 0e 3e 22 53 93 3d 97 18 16 3d
       0.2035712 0.13915414 0.07193591 0.036644544
0003c0 67 72 72 bd 7b 03 e0 bb fe 02 06 3e fc 84 82 3d
       -0.059191134 -0.0068363524 0.13087079 0.06373021
0003d0 2d 04 6f bd 02 db 21 bd 71 e3 00 3d b1 42 70 bd
       -0.05835359 -0.039515503 0.031466905 -0.058657352
0003e0 0c 28 22 be 1d 16 38 3c 2a 1a c7 3d 21 77 3b 3e
       -0.15835589 0.011235741 0.09721787 0.18307163
0003f0 70 d8 09 bd ea c7 d7 3d 97 c2 19 be 71 e9 8b bd
       -0.033653677 0.105361775 -0.15015636 -0.06831635

conv3.bias f4 [120]
000000 c0 88 45 3e 53 ac b9 bd 84 1d b4 3c f7 ce 10 bd
       0.19290447 -0.09066071 0.02198673 -0.035353627
000010 bd 64 d0 3c 60 70 c0 3d 4d 89 a2 3b 09 62 8b bd
       0.02543866 0.09396434 0.004960215 -0.06805808
000020 f1 eb 2b bc ab 97 2c bc 78 b2 6f 3c 94 74 53 3d
       -0.0104932645 -0.010534207 0.014629953 0.05162485
000030 14 14 92 3d 06 f7 8b bd a1 ed ba 3b 25 3a 8b bd
       0.07132736 -0.06834225 0.005704597 -0.067981996
000040 2e eb 17 bd 78 fe b4 3b 78 88 a3 3c 10 23 71 3d
       -0.03708952 0.005523499 0.019962534 0.05887133
000050 e1 e1 06 3e ca dc 7c 3c 87 63 fc bd 2b 0c 05 be
       0.13172103 0.0154335 -0.12323671 -0.12992923
000060 e5 0f 63 3c 35 f7 0a aa 99 9e 59 3d 01 e6 25 3d
       0.01385877 -1.234263e-13 0.053129766 0.040502552
000070 d5 0f a5 bd 24 d4 a6 bd 8a a9 30 be df 1c 4d 3d
       -0.0805966 -0.08145931 -0.17252174 0.05007636
000080 88 61 b3 bd e2 23 55 bd 56 ab fb bb 52 e5 8d bd
       -0.08758837 -0.052036174 -0.007680337 -0.06928505
000090 0e 36 b7 3d 5e b7 25 be 5f 10 0e 3e 1e ef 9b 3d
       0.08945857 -0.1618323 0.13873433 0.07613967
0000a0 bc 8f e2 3c 6b 7b 5c 3c 8e c9 05 bd 69 58 e4 3d
       0.027656429 0.0134571595 -0.03266292 0.111496754
0000b0 ee 52 b5 ac bd 02 92 3c f9 78 68 3e ca 20 3d be
       -5.1535365e-12 0.017823571 0.22702397 -0.1846954
0000c0 0b e9 a8 bd 88 a8 55 3e 05 f4 c7 af 6b de 89 3e
       -0.082475744 0.20865071 -3.6371275e-10 0.26927504
0000d0 e4 17 97 3c d7 95 f1 3d dc 2d d1 3d 10 c6 0b b3
       0.01844401 0.11796158 0.10213825 -3.2543596e-08
0000e0 5a f3 ed 3d 89 16 15 bb 31 6f ef 3d 85 c5 55 3c
       0.11618681 -0.0022749028 0.1169113 0.013047581
0000f0 c1 c2 86 b1 85 a8 bf bc c4 a5 5b 3e 79 54 6c 3b
       -3.9220542e-09 -0.023395786 0.21449953 0.0036061092
000100 02 27 f0 bc 42 e6 93 3d b8 92 01 bd d3 63 e5 3d
       -0.029315475 0.072216526 -0.031634063 0.112006806
000110 40 1f 9d 3d 51 04 c2 3b 42 78 4e 3c a5 5b 9d 3d
       0.07671976 0.0059209247 0.012601914 0.076834954
000120 ac 9f 16 bd 8f 9f 4c bb 12 46 23 3d 23 b8 75 3c
       -0.03677337 -0.0031223034 0.039861746 0.014997515
000130 e2 88 c5 3c a5 53 17 3e 21 40 62 bd 48 cc 90 bd
       0.024113122 0.14778002 -0.05523694 -0.070702136
000140 e0 1a f0 3d 9a 4f d9 3c 94 95 f4 bd 99 65 e3 bd
       0.11723876 0.026527215 -0.11942592 -0.111033626
000150 82 36 16 3d 3f 40 40 be ef 80 62 bd d8 c1 59 3d
       0.036673076 -0.18774508 -0.055298742 0.05316338
000160 d0 cc 35 be 3c 75 7d 3d 50 20 99 bc a6 81 bd 3d
       -0.17753911 0.06187938 -0.018692166 0.09253244
000170 15 28 0c be 0d a1 8f bb d2 bc 77 bd 6e 82 26 3c
       -0.13687165 -0.0043832124 -0.060482807 0.010162933
000180 37 aa 20 3e 99 50 a2 bd a4 e1 0b 3e 65 f9 cd bd
       0.15689932 -0.07925529 0.13660294 -0.10057334
000190 29 50 d9 bc 66 d1 43 ba 2f 41 78 3b 73 9f 0b 3e
       -0.026527481 -0.00074698625 0.003788065 0.13635044
0001a0 24 ab a1 bb 86 32 10 bd a9 16 9e bd c7 f9 79 bd
       -0.0049337316 -0.035204433 -0.07719166 -0.06102922
0001b0 cd e6 0d bd 3e f9 d6 bd d5 18 4d b3 6c f0 4b ba
       -0.034643937 -0.10496758 -4.7752867e-08 -0.0007779661
0001c0 19 d7 a9 bd ea 1b 18 bd 02 94 09 3d e9 71 10 3d
       -0.0829298 -0.037135996 0.033588417 0.035264883
0001d0 80 d9 70 b6 de 95 2a 3c 2f 74 ed bd 26 bb 9f ba
       -3.5889389e-06 0.010411708 -0.11594426 -0.0012186512

fully_connected1.weight f4 [84, 120]
000000 46 5b 3b 3c 25 6b dc bd a1 1f 28 bd 6a a8 49 bb
       0.0114353355 -0.10762624 -0.04104579 -0.0030770549
000010 1c 84 fc bc 38 96 23 bd dd bf c2 bd 8f 4f 58 bd
       -0.030824713 -0.03993818 -0.09509251 -0.052810248
000020 a9 08 74 bd a1 67 4a bd a0 95 f4 bd 25 a8 35 3d
       -0.05957857 -0.049415234 -0.11942601 0.04434981
000030 b9 3d 2a 3e bb 56 8d bd 88 19 2f 3d 9a 48 01 3e
       0.16625108 -0.06901308 0.042748958 0.12625352
000040 5e 6d 25 3e 93 f9 41 3d 1f c9 4e 3d b2 d8 3f 3e
       0.16155002 0.047357153 0.050484773 0.18735006
000050 0f 4c ff 3c a0 26 1d 3e 5b ae 32 bd 76 5c c5 bd
       0.031164197 0.15346766 -0.04362331 -0.09636776
000060 2b 8b 00 be 64 b8 00 80 38 46 e1 bc f1 85 e1 3d
       -0.12553088 -6.6147e-41 -0.027499303 0.110118754
000070 33 ae 17 bd 11 2d d7 3d fd 36 fb 3d 38 e9 be 3d
       -0.037031364 0.105066426 0.122663476 0.09321827
000080 76 5b 2a bc 6a 63 8f 3d aa 47 69 bd d0 36 ea 3c
       -0.010397783 0.070013836 -0.05695311 0.02859059
000090 d3 ff 0f 3e a0 8e f7 3d 56 13 d4 3d e5 90 11 be
       0.14062433 0.120877504 0.103552505 -0.14215429
0000a0 32 28 c1 3a bd 14 87 bd 55 1f fb bd 4d d7 0c 3c
       0.001473671 -0.065957524 -0.122618355 0.008596254
0000b0 fb f9 35 a7 b0 98 ea bd 98 9c 0a 3d 5e b3 12 3e
       -2.525431e-15 -0.11454904 0.033840746 0.14326236
0000c0 b7 ab 2a bd 2a ff 22 3e a1 f3 a2 14 4e 70 0c 3e
       -0.041667666 0.1591765 1.6453914e-26 0.13714716
0000d0 1c 53 d5 bd e3 fc 6b bb e6 23 51 be 5c 4f dc b0
       -0.104162425 -0.0036008887 -0.2042385 -1.6029662e-09
0000e0 79 b1 0f be ef 85 54 3e fb a4 a1 3e 64 4c 62 bc
       -0.14032544 0.20754217 0.31571183 -0.013812158
0000f0 9b 96 07 86 b4 08 cc bd 5d 1a 10 3d d6 94 32 3e
       -2.5501325e-35 -0.099625975 0.035181392 0.17439589
000100 83 9e d9 3d e3 a5 2c 3d 2f c8 89 3d 04 a5 50 be
       0.10625937 0.04215039 0.06727635 -0.20375448
000110 7f 80 dd 3c 01 fb 22 bd d4 29 71 be 11 72 a4 3d
       0.02703881 -0.039790157 -0.23551112 0.08029569
000120 ea 7b 8a 3c 15 63 82 b9 34 d4 04 be 56 c6 3d bd
       0.01690479 -0.00024869354 -0.12971574 -0.046331726
000130 1d d7 31 bc 23 d1 bc bd 73 4d 8c bd 34 30 17 3d
       -0.01085451 -0.09219577 -0.0685071 0.036911204
000140 2f 2b b5 bc 95 e7 a9 be 26 24 a7 3c 40 52 bf bc
       -0.022115318 -0.33184496 0.02040298 -0.02335465
000150 91 46 53 3d 63 65 7f 3c 49 1c 3a 3d 48 ac b4 3d
       0.05158097 0.015588137 0.04543713 0.088219225
000160 5d 02 27 3e 12 b1 e9 3d 7b e4 27 be c6 bf 58 be
       0.16309495 0.114107266 -0.16395752 -0.21166906
000170 98 92 04 bd 40 3e f9 3d 8f a4 b3 3a 94 7f d5 bc
       -0.032366365 0.12170076 0.0013705658 -0.02606181
000180 f2 22 70 3e e8 b2 83 bc fc 20 0c 3e a3 c6 a3 bc
       0.2345083 -0.01607652 0.13684458 -0.019992178
000190 19 19 09 3e e6 5a cf b7 ea 2f 2b 3c 19 c3 3b 3c
       0.1338848 -2.471865e-05 0.010448435 0.011460089
0001a0 41 6d 0e bd aa f2 8b 3c d7 9f 5d bb c6 d5 82 3d
       -0.03477216 0.017083485 -0.0033817196 0.0638843
0001b0 74 fb cf 3d 3e c4 69 bc a1 f0 4b 32 e9 e1 44 3d
       0.10155383 -0.014267979 1.1870868e-08 0.048067007
0001c0 4f 0d 07 bd 3e 90 8d b8 ab e4 8d bd 78 ae c9 3d
       -0.032971676 -6.750271e-05 -0.069283806 0.098477304
0001d0 67 df c8 a9 a8 00 62 be 7f a9 b7 3d 9e 5b 71 bc
       -8.920538e-14 -0.22070563 0.08967876 -0.014731316
0001e0 36 ab 01 3d 45 c9 bd 3d d3 70 d8 bd cf 05 07 3b
       0.03165742 0.09266905 -0.105683945 0.0020602827
0001f0 b0 bb 19 bc c3 da 0f 3e d6 b6 55 3d 06 76 94 3d
       -0.009383127 0.14048295 0.05217632 0.07249074
000200 af 97 20 3b e9 3f a7 bd 77 e1 75 3d d2 9c 11 bd
       0.0024504473 -0.08166487 0.060029473 -0.035549946
000210 ea 1b 01 be fa 99 0e 3e 7e e8 e9 bd 1e f5 14 3e
       -0.12608305 0.13925925 -0.114212975 0.1454663
000220 9f 79 4b 3d d6 44 1c 3d 4a 01 11 3e 83 b1 7a 3d
       0.049676534 0.038151585 0.14160648 0.061204445
000230 a2 b2 dc ba e1 ee 1f be 63 6c 04 3e e4 76 02 3d
       -0.0016837905 -0.15618469 0.12931971 0.031851664
000240 1a 91 d4 bd 0a 35 00 00 a4 79 1d be ce 6c 54 bb
       -0.103792384 1.9027e-41 -0.15378433 -0.0032413485
000250 dc c3 d0 3d ec 86 3d be 0b 23 f6 bc 5f 59 82 3d
       0.10193607 -0.185085 -0.030046007 0.063647024
000260 37 25 c4 bc 0b e2 0a bd 7d 3e 89 3d 47 0f 38 bc
       -0.023943527 -0.033906978 0.06701372 -0.011234111
000270 e6 99 fc bd 02 e1 f5 bd 38 92 87 3d aa 6b c7 3d
       -0.12334041 -0.120058075 0.06619686 0.09737332
000280 0e 87 b4 3d 7a 9f eb 3d 0b 44 d3 3c 87 63 e2 bc
       0.08814822 0.11505027 0.025789281 -0.027635349
000290 8a 69 af a9 1d 2e dd bb ff 28 13 3e f2 7c e8 bd
       -7.789869e-14 -0.006749882 0.14371108 -0.113519564
0002a0 17 88 e5 3d 5b 8b 01 bd 4f 5b 92 84 49 f6 4b be
       0.11207598 -0.03162704 -3.440829e-36 -0.19918169
0002b0 b7 13 61 3d 26 58 fc 3d 0e 2d e7 3d e0 02 b1 2d
       0.054950442 0.123215005 0.112878904 2.0123847e-11
0002c0 74 f5 8a 3d 13 e0 a4 bd 06 01 49 be c5 a6 d9 3d
       0.06785098 -0.08050551 -0.19629297 0.10627512
0002d0 23 f4 96 16 9b d4 72 bc 4d ea b7 3d 37 f4 0c be
       2.438788e-25 -0.014821197 0.08980236 -0.13765036
0002e0 36 0e 2c be 11 91 e1 bd 92 00 90 3d 54 5d 04 3d
       -0.16802296 -0.11013997 0.07031359 0.032315567
0002f0 c8 45 e3 3d 0a 02 81 bd 1e 3a 1c 3e 88 79 02 3c
       0.11097294 -0.06299217 0.15256545 0.007963546
000300 24 2c 96 bd 3f d8 23 b9 47 0b 0e bc e7 9b 83 3d
       -0.07332638 -0.0001562545 -0.008669681 0.064262204
000310 9b 6d 03 3d ec 5c b8 3c 95 9c 57 3b ca 87 b9 bd
       0.03208695 0.022505246 0.0032899727 -0.09059103
000320 4e 7e 64 3d fd 94 ad 3e 98 7c 6c bd a8 b5 91 bc
       0.055784516 0.33902732 -0.05773601 -0.017786816
000330 7d a1 1e 3e ff cb 3d 3e 91 5a c4 3d 08 b0 f2 bd
       0.1549129 0.1853485 0.09587587 -0.118499815
000340 c1 85 e7 bc 95 0d a5 bd b8 c6 de 3d 35 91 04 3e
       -0.028262021 -0.08059231 0.10877746 0.12946017
000350 20 56 30 3e 4a 19 9e bd 53 6b d3 3a 2e 90 1e 3d
       0.17220354 -0.07719667 0.0016130008 0.03871172
000360 46 52 aa 3b fb f6 10 be d9 66 3f 3d 49 83 38 3b
       0.005197796 -0.14156716 0.046728943 0.0028154424
000370 8a e9 a5 3c 42 8b a0 38 27 03 9d 3d ce 4d 9b bd
       0.020252962 7.655333e-05 0.07666617 -0.075831994
000380 26 80 ad 3d aa 68 2d 3c 6d 39 10 3d a6 ab fb 3c
       0.08471708 0.010584036 0.035211015 0.030721497
000390 12 ff 69 3c bb f8 a7 bc f6 d1 4c 2f 49 46 47 bd
       0.014282005 -0.020504346 1.8628285e-10 -0.048651014
0003a0 30 5b 83 3d e9 f5 c1 39 18 35 85 3d 43 86 37 3c
       0.06413877 0.00036995046 0.065042675 0.011201444
0003b0 69 5b c1 2a 05 93 be 3e 83 18 af bb c5 4b 35 be
       3.4347116e-13 0.37221542 -0.005343498 -0.17704685
0003c0 67 b0 12 3d db f9 68 3d 49 56 bb bd 0b bc f8 bb
       0.03581276 0.056878906 -0.09147317 -0.007590776
0003d0 9b da 89 3d 7d ee 7f 3d 41 de d8 3d 98 aa ab bd
       0.06731149 0.0624833 0.105892666 -0.083821476
0003e0 12 51 0b bc 11 50 bc 3d 4d f4 1b be b8 f2 bf 3a
       -0.008503215 0.09194959 -0.15229912 0.0014644479
0003f0 d3 1e 43 3c 6d d9 f4 bc c5 4c b6 3d 1b ab 9b 3c
       0.011909205 -0.029888833 0.089013614 0.019002488

fully_connected1.bias f4 [84]
000000 79 00 03 3e a7 c8 e7 3d 60 bf a4 3d f4 d8 c7 3d
       0.12793149 0.11317568 0.080443144 0.097581774
000010 a6 56 6d 3c 06 85 8f bc 8e 67 78 3d d1 25 0b bd
       0.014485991 -0.017519485 0.060645632 -0.03397161
000020 a8 62 75 3e 55 eb a6 3d 81 95 4e 3e de a4 16 3e
       0.23963416 0.08150355 0.20174219 0.1471133
000030 26 b8 75 b1 e5 9a 2d bd 49 c5 84 3d 58 77 12 3e
       -3.5756869e-09 -0.042384047 0.06482942 0.14303339
000040 5a b9 21 3e 3b c6 37 3e f0 5d 3d 3e 83 1e 0b 3e
       0.15793362 0.17946713 0.18492866 0.13585858
000050 9e a9 be bc d6 c1 82 b2 4d 09 48 3d 7a 69 fe a9
       -0.02327424 -1.5222138e-08 0.048836995 -1.1298163e-13
000060 fd 9b d9 bc 8b 90 fe 3b 75 dc d2 3c f7 bb b7 3d
       -0.026563639 0.0077686957 0.025739888 0.08971398
000070 28 e4 60 3e aa de aa 3a dc 17 c7 3d 9a e9 21 bc
       0.21962035 0.001303633 0.09721348 -0.009882355
000080 94 69 e4 a6 e2 13 46 3e 7b 42 da bc 4b 62 56 3d
       -1.5849295e-15 0.19343522 -0.026643028 0.052339833
000090 0d da ef 3d d6 d0 fb 3d 77 2e 7b bd 93 48 f4 3d
       0.11711512 0.12295692 -0.06132361 0.11927905
0000a0 d7 18 2f 3e dd 3d a0 b7 dd 4c 5d 3e 3f 21 33 b9
       0.1709932 -1.9102294e-05 0.21611352 -0.00017083155
0000b0 12 4c 58 3e 9a 95 2c 3d ad 8d 5b bd e3 5e 9b 3d
       0.21122769 0.04213486 -0.05360191 0.075864576
0000c0 29 af 8a b5 bc 4b 5e bc 69 ee 0a b2 13 43 01 3e
       -1.033278e-06 -0.013567861 -8.086865e-09 0.12623243
0000d0 c5 01 8b 3e 9c 0d 69 3c 93 6c 56 3e 3f 3c 52 3e
       0.27149788 0.014224436 0.20939855 0.20530795
0000e0 b0 a2 07 bd c5 ad b4 ad 69 0a 5a 3e 36 e0 21 3d
       -0.033114135 -2.05408e-11 0.21293034 0.039520465
0000f0 60 ee a5 bb 12 45 4b 3e bb 98 1d 3e 9d ed 4f 3d
       -0.005063817 0.19850567 0.15390293 0.050763715
000100 41 3e cd 3d 9c 5e 93 3e 6f 36 1c 3e 16 dc 29 3d
       0.100216396 0.2878312 0.1525514 0.041469656
000110 71 6a d4 3d 44 62 f5 3d 89 fa 8e bb 43 c1 87 bc
       0.103718646 0.11981633 -0.004363362 -0.016571647
000120 5e 96 62 3c b8 ae 2f b3 66 bb 8c bc 63 0b 73 3d
       0.013829796 -4.090427e-08 -0.017179202 0.05933703
000130 8a f1 90 b6 ee d1 b9 bd ed 6d 0c 3e ca e4 18 a6
       -4.3196533e-06 -0.09073244 0.13713808 -5.304566e-16
000140 af ef 1a 3d a4 ad 07 3d 4f 7d 80 b4 8d 92 e8 3d
       0.037826236 0.03312458 -2.3933032e-07 0.11356077

fully_connected2.weight f4 [10, 84]
000000 f0 92 9b be 52 5a 54 3e e9 d7 12 be 20 fc bf bd
       -0.30385542 0.2073758 -0.14340176 -0.09374261
000010 3f ba aa 3e 83 1f 41 3e a7 55 5b be e2 67 ee bb
       0.3334522 0.18859677 -0.21419393 -0.0072755674
000020 79 97 04 be dd 3d 9e 3d ed c6 85 3e b0 4f 8c be
       -0.12948407 0.07726643 0.2612833 -0.27404547
000030 13 ee dd 37 85 40 21 bd a3 63 3d 3e 3c 26 ee be
       2.6456115e-05 -0.03936817 0.1849504 -0.46513546
000040 d0 7a 8f bd e9 a0 e4 bd 34 7a 31 be 81 f4 b4 be
       -0.070058465 -0.11163504 -0.17331773 -0.35342792
000050 85 8f 1e 3d d1 e9 82 9a 72 54 25 be 02 9c b9 b2
       0.03871109 -5.414449e-23 -0.16145495 -2.1607779e-08
000060 b4 9d 3b bc 6e ec c9 be 70 a2 48 3c cd 8a c4 be
       -0.011451174 -0.39438194 0.012245759 -0.38387147
000070 91 e3 30 3e 58 03 de 3d ca 1f 9e 3e cb 0b 56 3e
       0.1727431 0.108404815 0.30883628 0.20902936
000080 df c5 7d 8a 14 7b bc 3c 69 4b b8 39 01 fe 17 3e
       -1.2218722e-32 0.023007907 0.000351514 0.14842989
000090 25 33 b7 be 78 96 00 be ae 73 90 3e 72 b1 26 bf
       -0.35781208 -0.125574 0.28213257 -0.6511451
0000a0 ad 14 9c bd 5e 10 43 37 55 11 83 be af 84 e9 33
       -0.07621131 1.16267165e-05 -0.2559916 1.0874043e-07
0000b0 6c 46 03 3e d9 5f c8 bd d0 34 92 3e f7 2f bf bd
       0.12819833 -0.097839065 0.28555918 -0.093353204
0000c0 05 62 0c 37 77 83 f8 bb e6 89 a7 ab 08 71 cf 3e
       8.367472e-06 -0.007584031 -1.1904338e-12 0.40515924
0000d0 84 27 c1 3c 64 32 37 be b0 b1 ba bd d3 97 c5 bd
       0.023578413 -0.17890316 -0.091159225 -0.09648099
0000e0 03 2a d0 bc b6 18 ee b4 35 23 a7 be 3b b7 99 3c
       -0.025410658 -4.4348934e-07 -0.32644048 0.018764129
0000f0 48 e8 e3 bc d1 61 81 be 6f 54 d2 be 4b bc 6c be
       -0.027820721 -0.2526994 -0.41080043 -0.23118703
000100 c2 41 0d bc 10 f0 08 3e 30 10 e2 3d 1d 6f 84 be
       -0.008621635 0.13372827 0.11038244 -0.25866023
000110 e9 78 c8 bb 74 ed 0e be 8f c5 e9 3a 30 e4 02 3e
       -0.0061179292 -0.13957769 0.0017835366 0.12782359
000120 8f c1 51 3d f0 18 33 b6 68 02 be ba 5b e9 80 3e
       0.051209982 -2.6687594e-06 -0.0014496567 0.25178036
000130 77 22 b6 34 0d 3c 79 be c2 13 06 3d bb 85 ea a7
       3.3925218e-07 -0.24339314 0.032733686 -6.5093038e-15
000140 ad b7 96 3e 70 48 5e be ca d2 c1 b1 38 e0 2d 3d
       0.29437009 -0.2170732 -5.641003e-09 0.04245016
000150 dd af 2d 3e 77 77 44 be ac e5 68 be ee 69 45 3e
       0.16961618 -0.19186197 -0.22743863 0.1927869
000160 38 ae 43 3e 4e 7f 28 be 94 87 c8 3d 78 74 90 bc
       0.19109428 -0.16454813 0.097914845 -0.017633662
000170 73 ac 97 be 3e 91 93 bd 8d 38 6e be 95 0b d0 bd
       -0.29623756 -0.07205437 -0.2326376 -0.10158459
000180 19 a1 c4 b7 c5 e5 c9 ba 62 ba 86 3e 5f b6 f5 bc
       -2.3440038e-05 -0.001540356 0.26314074 -0.029994188
000190 78 59 78 3e a2 4d 51 3d ce 5c ad be 16 1b 03 bd
       0.2425288 0.051099427 -0.33859867 -0.032008253
0001a0 96 bf ce 3c 22 ec 4a 3a 82 cc 86 be 7d 85 01 34
       0.02523784 0.0007740875 -0.26327902 1.2062624e-07
0001b0 b4 4a 14 bd 82 6d e3 bd f8 ec b8 3e f0 89 8a 3e
       -0.036204055 -0.11104871 0.36118293 0.27058363
0001c0 55 f4 d8 bd 43 8f 01 3b 96 8d 6e be 7d bd 32 3e
       -0.10593478 0.0019769229 -0.23296198 0.17455097
0001d0 da 40 ad 36 70 a6 84 bd 43 0b 28 3b 3b f6 90 be
       5.1633515e-06 -0.06477058 0.0025641478 -0.2831286
0001e0 22 d8 83 3e 4b 46 08 3e c2 84 2d 3e 48 eb ff 3d
       0.25750834 0.13308065 0.16945174 0.12496048
0001f0 56 a7 67 be 9d 63 32 b8 44 71 99 bd 7b 5f 45 ba
       -0.22622427 -4.253128e-05 -0.07492307 -0.00075291813
000200 34 89 e4 be 68 ea 95 3e a7 e9 5f 3e db e4 87 3d
       -0.44635928 0.292804 0.21866475 0.066354476
000210 40 49 c3 b6 a2 43 6d 3b b0 96 71 2f f9 ef 2a be
       -5.8199803e-06 0.0036203642 2.1972357e-10 -0.16693105
000220 78 4a fe be 78 e9 b9 bd 75 b5 19 bf b5 7a 56 3c
       -0.4966619 -0.09077734 -0.60042506 0.013090779
000230 46 b8 a3 3c 69 ac 0a 3b 89 b2 a2 be fb 21 55 be
       0.01998533 0.0021159893 -0.31776837 -0.20813744
000240 d8 e6 b2 bb fa 8d 2f 3e 5e ce 08 3e 02 3a ca 3c
       -0.0054596476 0.17144004 0.13359973 0.024685863
000250 d4 32 ed 3d 80 c3 01 be 72 d1 45 3d 25 dc 9e bd
       0.1158196 -0.12672234 0.048295446 -0.07756833
000260 14 2d 0a bf d5 55 8f be bd ce 71 bc 20 70 1d be
       -0.53975034 -0.27995172 -0.014758763 -0.15374804
000270 03 9a 02 bf cc 10 11 3b a0 36 0e be 7c e4 a4 be
       -0.51016253 0.0022135256 -0.13888025 -0.3220557
000280 3b 59 a9 b9 84 6b 47 3e 64 84 09 be ed bf d0 1f
       -0.00032300674 0.19474608 -0.1342941 8.840894e-20
000290 fb a3 ac 3e 2e 82 73 3e 2a d8 53 b6 70 de 17 3e
       0.33718857 0.23780128 -3.1567274e-06 0.14830947
0002a0 3f 97 9e 3e 32 2d ca be 5b ad ac be 64 92 30 3e
       0.30974767 -0.39487606 -0.3372601 0.17243344
0002b0 41 dd c8 be a1 ba 9b bd 5b da 1b be b5 9a 00 3d
       -0.39231303 -0.07603956 -0.15220015 0.03139754
0002c0 43 78 83 3e 0a 69 a4 be 75 85 9d bc 17 5d 9a 3e
       0.2567769 -0.32111388 -0.019228676 0.30149147
0002d0 ee e7 f6 b7 b4 02 1f 3d 52 9e 44 3e 0f 23 f7 be
       -2.9433486e-05 0.038820937 0.1920102 -0.48268935
0002e0 eb 3a 20 bd 5e 13 5d 3e 60 14 1b be 9f 57 4f 3e
       -0.03911869 0.21589419 -0.15144491 0.20248269
0002f0 b4 e9 fb bc 97 9d 25 b5 f3 02 b2 3d 4b da 4a 35
       -0.030751087 -6.1696613e-07 0.08691969 7.556852e-07
000300 c1 f5 95 3b 31 ed 58 be d5 40 cb be 12 4c 87 3c
       0.0045764153 -0.21184231 -0.396979 0.016515765
000310 ea 26 90 3e 7f af 31 bd 65 02 f4 be e6 4e 63 3d
       0.2815469 -0.043380257 -0.47658077 0.055495165
000320 13 0b bd 35 9f 2a b8 3d 97 e0 42 3c 51 b0 a6 be
       1.408482e-06 0.08992504 0.011894367 -0.32556394
000330 be 43 e9 3d 39 3f 3c be b2 a4 1d 3d 34 c2 c6 be
       0.11389874 -0.18383493 0.038487144 -0.3882004
000340 27 6d 38 3e b4 69 41 3c a4 eb 0d 3d 20 18 9e ba
       0.18010388 0.011804987 0.034648553 -0.0012061633
000350 10 83 4c be 89 84 5b 3e 4d 9a e4 3d 5d 7d 86 be
       -0.19971871 0.21437277 0.11162243 -0.2626752
000360 49 c1 23 38 c0 f9 ef 3b 2c 90 67 30 ff 40 8d 3e
       3.904224e-05 0.0073234737 8.424219e-10 0.2758865
000370 55 87 50 3e d0 02 4a be f3 85 12 3e 02 05 06 3e
       0.20364125 -0.19727635 0.1430891 0.13087848
000380 13 57 84 bc c7 c7 36 b9 87 30 c5 3d e8 87 a6 3d
       -0.016154801 -0.00017431295 0.096283965 0.08131391
000390 54 4d 6a 3c 67 d8 13 3e b8 86 e9 ba e4 5b 99 be
       0.014300663 0.1443802 -0.0017816639 -0.2995292
0003a0 4f 1e 7b be c6 4a 2d bd 13 7a a8 3d e2 41 89 be
       -0.2452328 -0.042307638 0.08226409 -0.26808077
0003b0 d0 74 a5 be 1e 94 ec 3d 8e bc a0 3c 4a d4 b7 3b
       -0.32315683 0.115516886 0.01962116 0.0056100236
0003c0 f0 fd 0b bd 8a 7a e2 b9 c7 07 b1 3c 72 cc 7f 3e
       -0.03417772 -0.00043197378 0.021610154 0.24980333
0003d0 cf f4 75 39 70 d4 0b be 08 bb e4 3e b4 67 08 19
       0.00023456219 -0.13655257 0.44673944 7.051978e-24
0003e0 45 70 2a bf 7e c8 b3 3d 38 29 f5 35 c2 ca f6 be
       -0.6657756 0.08778475 1.8265919e-06 -0.48201567
0003f0 9e d9 32 be 70 ee 1c bd e2 5c fd 3d 1f da 87 3e
       -0.17465827 -0.03831333 0.123712316 0.265336

fully_connected2.bias f4 [10]
000000 7e 16 40 bd 49 52 39 bd 46 ed 86 3d b4 72 21 3d
       -0.04689645 -0.04524449 0.06588225 0.03941603
000010 a8 fc 8b bd 0f 34 ba bd 41 73 53 3d eb 25 6c 3d
       -0.068353 -0.09091961 0.051623587 0.05765335
000020 af 9b 0e 3e 93 ff bf bd
       0.13926576 -0.09374919
